----------------------------------------------------------------
        Layer (type)               Output Shape         Param #
================================================================
            Conv2d-1           [-1, 16, 32, 32]             432
       BatchNorm2d-2           [-1, 16, 32, 32]              32
            Conv2d-3           [-1, 16, 32, 32]           2,304
       BatchNorm2d-4           [-1, 16, 32, 32]              32
            Conv2d-5           [-1, 16, 32, 32]           2,304
       BatchNorm2d-6           [-1, 16, 32, 32]              32
        BasicBlock-7           [-1, 16, 32, 32]               0
            Conv2d-8           [-1, 16, 32, 32]           2,304
       BatchNorm2d-9           [-1, 16, 32, 32]              32
           Conv2d-10           [-1, 16, 32, 32]           2,304
      BatchNorm2d-11           [-1, 16, 32, 32]              32
       BasicBlock-12           [-1, 16, 32, 32]               0
           Conv2d-13           [-1, 16, 32, 32]           2,304
      BatchNorm2d-14           [-1, 16, 32, 32]              32
           Conv2d-15           [-1, 16, 32, 32]           2,304
      BatchNorm2d-16           [-1, 16, 32, 32]              32
       BasicBlock-17           [-1, 16, 32, 32]               0
           Conv2d-18           [-1, 16, 32, 32]           2,304
      BatchNorm2d-19           [-1, 16, 32, 32]              32
           Conv2d-20           [-1, 16, 32, 32]           2,304
      BatchNorm2d-21           [-1, 16, 32, 32]              32
       BasicBlock-22           [-1, 16, 32, 32]               0
           Conv2d-23           [-1, 16, 32, 32]           2,304
      BatchNorm2d-24           [-1, 16, 32, 32]              32
           Conv2d-25           [-1, 16, 32, 32]           2,304
      BatchNorm2d-26           [-1, 16, 32, 32]              32
       BasicBlock-27           [-1, 16, 32, 32]               0
           Conv2d-28           [-1, 16, 32, 32]           2,304
      BatchNorm2d-29           [-1, 16, 32, 32]              32
           Conv2d-30           [-1, 16, 32, 32]           2,304
      BatchNorm2d-31           [-1, 16, 32, 32]              32
       BasicBlock-32           [-1, 16, 32, 32]               0
           Conv2d-33           [-1, 16, 32, 32]           2,304
      BatchNorm2d-34           [-1, 16, 32, 32]              32
           Conv2d-35           [-1, 16, 32, 32]           2,304
      BatchNorm2d-36           [-1, 16, 32, 32]              32
       BasicBlock-37           [-1, 16, 32, 32]               0
           Conv2d-38           [-1, 16, 32, 32]           2,304
      BatchNorm2d-39           [-1, 16, 32, 32]              32
           Conv2d-40           [-1, 16, 32, 32]           2,304
      BatchNorm2d-41           [-1, 16, 32, 32]              32
       BasicBlock-42           [-1, 16, 32, 32]               0
           Conv2d-43           [-1, 16, 32, 32]           2,304
      BatchNorm2d-44           [-1, 16, 32, 32]              32
           Conv2d-45           [-1, 16, 32, 32]           2,304
      BatchNorm2d-46           [-1, 16, 32, 32]              32
       BasicBlock-47           [-1, 16, 32, 32]               0
           Conv2d-48           [-1, 32, 16, 16]           4,608
      BatchNorm2d-49           [-1, 32, 16, 16]              64
           Conv2d-50           [-1, 32, 16, 16]           9,216
      BatchNorm2d-51           [-1, 32, 16, 16]              64
      LambdaLayer-52           [-1, 32, 16, 16]               0
       BasicBlock-53           [-1, 32, 16, 16]               0
           Conv2d-54           [-1, 32, 16, 16]           9,216
      BatchNorm2d-55           [-1, 32, 16, 16]              64
           Conv2d-56           [-1, 32, 16, 16]           9,216
      BatchNorm2d-57           [-1, 32, 16, 16]              64
       BasicBlock-58           [-1, 32, 16, 16]               0
           Conv2d-59           [-1, 32, 16, 16]           9,216
      BatchNorm2d-60           [-1, 32, 16, 16]              64
           Conv2d-61           [-1, 32, 16, 16]           9,216
      BatchNorm2d-62           [-1, 32, 16, 16]              64
       BasicBlock-63           [-1, 32, 16, 16]               0
           Conv2d-64           [-1, 32, 16, 16]           9,216
      BatchNorm2d-65           [-1, 32, 16, 16]              64
           Conv2d-66           [-1, 32, 16, 16]           9,216
      BatchNorm2d-67           [-1, 32, 16, 16]              64
       BasicBlock-68           [-1, 32, 16, 16]               0
           Conv2d-69           [-1, 32, 16, 16]           9,216
      BatchNorm2d-70           [-1, 32, 16, 16]              64
           Conv2d-71           [-1, 32, 16, 16]           9,216
      BatchNorm2d-72           [-1, 32, 16, 16]              64
       BasicBlock-73           [-1, 32, 16, 16]               0
           Conv2d-74           [-1, 32, 16, 16]           9,216
      BatchNorm2d-75           [-1, 32, 16, 16]              64
           Conv2d-76           [-1, 32, 16, 16]           9,216
      BatchNorm2d-77           [-1, 32, 16, 16]              64
       BasicBlock-78           [-1, 32, 16, 16]               0
           Conv2d-79           [-1, 32, 16, 16]           9,216
      BatchNorm2d-80           [-1, 32, 16, 16]              64
           Conv2d-81           [-1, 32, 16, 16]           9,216
      BatchNorm2d-82           [-1, 32, 16, 16]              64
       BasicBlock-83           [-1, 32, 16, 16]               0
           Conv2d-84           [-1, 32, 16, 16]           9,216
      BatchNorm2d-85           [-1, 32, 16, 16]              64
           Conv2d-86           [-1, 32, 16, 16]           9,216
      BatchNorm2d-87           [-1, 32, 16, 16]              64
       BasicBlock-88           [-1, 32, 16, 16]               0
           Conv2d-89           [-1, 32, 16, 16]           9,216
      BatchNorm2d-90           [-1, 32, 16, 16]              64
           Conv2d-91           [-1, 32, 16, 16]           9,216
      BatchNorm2d-92           [-1, 32, 16, 16]              64
       BasicBlock-93           [-1, 32, 16, 16]               0
           Conv2d-94             [-1, 64, 8, 8]          18,432
      BatchNorm2d-95             [-1, 64, 8, 8]             128
           Conv2d-96             [-1, 64, 8, 8]          36,864
      BatchNorm2d-97             [-1, 64, 8, 8]             128
      LambdaLayer-98             [-1, 64, 8, 8]               0
       BasicBlock-99             [-1, 64, 8, 8]               0
          Conv2d-100             [-1, 64, 8, 8]          36,864
     BatchNorm2d-101             [-1, 64, 8, 8]             128
          Conv2d-102             [-1, 64, 8, 8]          36,864
     BatchNorm2d-103             [-1, 64, 8, 8]             128
      BasicBlock-104             [-1, 64, 8, 8]               0
          Conv2d-105             [-1, 64, 8, 8]          36,864
     BatchNorm2d-106             [-1, 64, 8, 8]             128
          Conv2d-107             [-1, 64, 8, 8]          36,864
     BatchNorm2d-108             [-1, 64, 8, 8]             128
      BasicBlock-109             [-1, 64, 8, 8]               0
          Conv2d-110             [-1, 64, 8, 8]          36,864
     BatchNorm2d-111             [-1, 64, 8, 8]             128
          Conv2d-112             [-1, 64, 8, 8]          36,864
     BatchNorm2d-113             [-1, 64, 8, 8]             128
      BasicBlock-114             [-1, 64, 8, 8]               0
          Conv2d-115             [-1, 64, 8, 8]          36,864
     BatchNorm2d-116             [-1, 64, 8, 8]             128
          Conv2d-117             [-1, 64, 8, 8]          36,864
     BatchNorm2d-118             [-1, 64, 8, 8]             128
      BasicBlock-119             [-1, 64, 8, 8]               0
          Conv2d-120             [-1, 64, 8, 8]          36,864
     BatchNorm2d-121             [-1, 64, 8, 8]             128
          Conv2d-122             [-1, 64, 8, 8]          36,864
     BatchNorm2d-123             [-1, 64, 8, 8]             128
      BasicBlock-124             [-1, 64, 8, 8]               0
          Conv2d-125             [-1, 64, 8, 8]          36,864
     BatchNorm2d-126             [-1, 64, 8, 8]             128
          Conv2d-127             [-1, 64, 8, 8]          36,864
     BatchNorm2d-128             [-1, 64, 8, 8]             128
      BasicBlock-129             [-1, 64, 8, 8]               0
          Conv2d-130             [-1, 64, 8, 8]          36,864
     BatchNorm2d-131             [-1, 64, 8, 8]             128
          Conv2d-132             [-1, 64, 8, 8]          36,864
     BatchNorm2d-133             [-1, 64, 8, 8]             128
      BasicBlock-134             [-1, 64, 8, 8]               0
          Conv2d-135             [-1, 64, 8, 8]          36,864
     BatchNorm2d-136             [-1, 64, 8, 8]             128
          Conv2d-137             [-1, 64, 8, 8]          36,864
     BatchNorm2d-138             [-1, 64, 8, 8]             128
      BasicBlock-139             [-1, 64, 8, 8]               0
          Linear-140                   [-1, 10]             650
================================================================
Total params: 853,018
Trainable params: 848,954
Non-trainable params: 4,064
----------------------------------------------------------------
Input size (MB): 0.01
Forward/backward pass size (MB): 10.19
Params size (MB): 3.25
Estimated Total Size (MB): 13.45
----------------------------------------------------------------
=> no checkpoint found at 'None'
…
