----------------------------------------------------------------
        Layer (type)               Output Shape         Param #
================================================================
            Conv2d-1           [-1, 16, 32, 32]             432
       BatchNorm2d-2           [-1, 16, 32, 32]              32
            Conv2d-3           [-1, 16, 32, 32]           2,304
       BatchNorm2d-4           [-1, 16, 32, 32]              32
            Conv2d-5           [-1, 16, 32, 32]           2,304
       BatchNorm2d-6           [-1, 16, 32, 32]              32
        BasicBlock-7           [-1, 16, 32, 32]               0
            Conv2d-8           [-1, 16, 32, 32]           2,304
       BatchNorm2d-9           [-1, 16, 32, 32]              32
           Conv2d-10           [-1, 16, 32, 32]           2,304
      BatchNorm2d-11           [-1, 16, 32, 32]              32
       BasicBlock-12           [-1, 16, 32, 32]               0
           Conv2d-13           [-1, 16, 32, 32]           2,304
      BatchNorm2d-14           [-1, 16, 32, 32]              32
           Conv2d-15           [-1, 16, 32, 32]           2,304
      BatchNorm2d-16           [-1, 16, 32, 32]              32
       BasicBlock-17           [-1, 16, 32, 32]               0
           Conv2d-18           [-1, 16, 32, 32]           2,304
      BatchNorm2d-19           [-1, 16, 32, 32]              32
           Conv2d-20           [-1, 16, 32, 32]           2,304
      BatchNorm2d-21           [-1, 16, 32, 32]              32
       BasicBlock-22           [-1, 16, 32, 32]               0
           Conv2d-23           [-1, 16, 32, 32]           2,304
      BatchNorm2d-24           [-1, 16, 32, 32]              32
           Conv2d-25           [-1, 16, 32, 32]           2,304
      BatchNorm2d-26           [-1, 16, 32, 32]              32
       BasicBlock-27           [-1, 16, 32, 32]               0
           Conv2d-28           [-1, 16, 32, 32]           2,304
      BatchNorm2d-29           [-1, 16, 32, 32]              32
           Conv2d-30           [-1, 16, 32, 32]           2,304
      BatchNorm2d-31           [-1, 16, 32, 32]              32
       BasicBlock-32           [-1, 16, 32, 32]               0
           Conv2d-33           [-1, 16, 32, 32]           2,304
      BatchNorm2d-34           [-1, 16, 32, 32]              32
           Conv2d-35           [-1, 16, 32, 32]           2,304
      BatchNorm2d-36           [-1, 16, 32, 32]              32
       BasicBlock-37           [-1, 16, 32, 32]               0
           Conv2d-38           [-1, 16, 32, 32]           2,304
      BatchNorm2d-39           [-1, 16, 32, 32]              32
           Conv2d-40           [-1, 16, 32, 32]           2,304
      BatchNorm2d-41           [-1, 16, 32, 32]              32
       BasicBlock-42           [-1, 16, 32, 32]               0
           Conv2d-43           [-1, 16, 32, 32]           2,304
      BatchNorm2d-44           [-1, 16, 32, 32]              32
           Conv2d-45           [-1, 16, 32, 32]           2,304
      BatchNorm2d-46           [-1, 16, 32, 32]              32
       BasicBlock-47           [-1, 16, 32, 32]               0
           Conv2d-48           [-1, 16, 32, 32]           2,304
      BatchNorm2d-49           [-1, 16, 32, 32]              32
           Conv2d-50           [-1, 16, 32, 32]           2,304
      BatchNorm2d-51           [-1, 16, 32, 32]              32
       BasicBlock-52           [-1, 16, 32, 32]               0
           Conv2d-53           [-1, 16, 32, 32]           2,304
      BatchNorm2d-54           [-1, 16, 32, 32]              32
           Conv2d-55           [-1, 16, 32, 32]           2,304
      BatchNorm2d-56           [-1, 16, 32, 32]              32
       BasicBlock-57           [-1, 16, 32, 32]               0
           Conv2d-58           [-1, 16, 32, 32]           2,304
      BatchNorm2d-59           [-1, 16, 32, 32]              32
           Conv2d-60           [-1, 16, 32, 32]           2,304
      BatchNorm2d-61           [-1, 16, 32, 32]              32
       BasicBlock-62           [-1, 16, 32, 32]               0
           Conv2d-63           [-1, 16, 32, 32]           2,304
      BatchNorm2d-64           [-1, 16, 32, 32]              32
           Conv2d-65           [-1, 16, 32, 32]           2,304
      BatchNorm2d-66           [-1, 16, 32, 32]              32
       BasicBlock-67           [-1, 16, 32, 32]               0
           Conv2d-68           [-1, 16, 32, 32]           2,304
      BatchNorm2d-69           [-1, 16, 32, 32]              32
           Conv2d-70           [-1, 16, 32, 32]           2,304
      BatchNorm2d-71           [-1, 16, 32, 32]              32
       BasicBlock-72           [-1, 16, 32, 32]               0
           Conv2d-73           [-1, 16, 32, 32]           2,304
      BatchNorm2d-74           [-1, 16, 32, 32]              32
           Conv2d-75           [-1, 16, 32, 32]           2,304
      BatchNorm2d-76           [-1, 16, 32, 32]              32
       BasicBlock-77           [-1, 16, 32, 32]               0
           Conv2d-78           [-1, 16, 32, 32]           2,304
      BatchNorm2d-79           [-1, 16, 32, 32]              32
           Conv2d-80           [-1, 16, 32, 32]           2,304
      BatchNorm2d-81           [-1, 16, 32, 32]              32
       BasicBlock-82           [-1, 16, 32, 32]               0
           Conv2d-83           [-1, 16, 32, 32]           2,304
      BatchNorm2d-84           [-1, 16, 32, 32]              32
           Conv2d-85           [-1, 16, 32, 32]           2,304
      BatchNorm2d-86           [-1, 16, 32, 32]              32
       BasicBlock-87           [-1, 16, 32, 32]               0
           Conv2d-88           [-1, 16, 32, 32]           2,304
      BatchNorm2d-89           [-1, 16, 32, 32]              32
           Conv2d-90           [-1, 16, 32, 32]           2,304
      BatchNorm2d-91           [-1, 16, 32, 32]              32
       BasicBlock-92           [-1, 16, 32, 32]               0
           Conv2d-93           [-1, 32, 16, 16]           4,608
      BatchNorm2d-94           [-1, 32, 16, 16]              64
           Conv2d-95           [-1, 32, 16, 16]           9,216
      BatchNorm2d-96           [-1, 32, 16, 16]              64
      LambdaLayer-97           [-1, 32, 16, 16]               0
       BasicBlock-98           [-1, 32, 16, 16]               0
           Conv2d-99           [-1, 32, 16, 16]           9,216
     BatchNorm2d-100           [-1, 32, 16, 16]              64
          Conv2d-101           [-1, 32, 16, 16]           9,216
     BatchNorm2d-102           [-1, 32, 16, 16]              64
      BasicBlock-103           [-1, 32, 16, 16]               0
          Conv2d-104           [-1, 32, 16, 16]           9,216
     BatchNorm2d-105           [-1, 32, 16, 16]              64
          Conv2d-106           [-1, 32, 16, 16]           9,216
     BatchNorm2d-107           [-1, 32, 16, 16]              64
      BasicBlock-108           [-1, 32, 16, 16]               0
          Conv2d-109           [-1, 32, 16, 16]           9,216
     BatchNorm2d-110           [-1, 32, 16, 16]              64
          Conv2d-111           [-1, 32, 16, 16]           9,216
     BatchNorm2d-112           [-1, 32, 16, 16]              64
      BasicBlock-113           [-1, 32, 16, 16]               0
          Conv2d-114           [-1, 32, 16, 16]           9,216
     BatchNorm2d-115           [-1, 32, 16, 16]              64
          Conv2d-116           [-1, 32, 16, 16]           9,216
     BatchNorm2d-117           [-1, 32, 16, 16]              64
      BasicBlock-118           [-1, 32, 16, 16]               0
          Conv2d-119           [-1, 32, 16, 16]           9,216
     BatchNorm2d-120           [-1, 32, 16, 16]              64
          Conv2d-121           [-1, 32, 16, 16]           9,216
     BatchNorm2d-122           [-1, 32, 16, 16]              64
      BasicBlock-123           [-1, 32, 16, 16]               0
          Conv2d-124           [-1, 32, 16, 16]           9,216
     BatchNorm2d-125           [-1, 32, 16, 16]              64
          Conv2d-126           [-1, 32, 16, 16]           9,216
     BatchNorm2d-127           [-1, 32, 16, 16]              64
      BasicBlock-128           [-1, 32, 16, 16]               0
          Conv2d-129           [-1, 32, 16, 16]           9,216
     BatchNorm2d-130           [-1, 32, 16, 16]              64
          Conv2d-131           [-1, 32, 16, 16]           9,216
     BatchNorm2d-132           [-1, 32, 16, 16]              64
      BasicBlock-133           [-1, 32, 16, 16]               0
          Conv2d-134           [-1, 32, 16, 16]           9,216
     BatchNorm2d-135           [-1, 32, 16, 16]              64
          Conv2d-136           [-1, 32, 16, 16]           9,216
     BatchNorm2d-137           [-1, 32, 16, 16]              64
      BasicBlock-138           [-1, 32, 16, 16]               0
          Conv2d-139           [-1, 32, 16, 16]           9,216
     BatchNorm2d-140           [-1, 32, 16, 16]              64
          Conv2d-141           [-1, 32, 16, 16]           9,216
     BatchNorm2d-142           [-1, 32, 16, 16]              64
      BasicBlock-143           [-1, 32, 16, 16]               0
          Conv2d-144           [-1, 32, 16, 16]           9,216
     BatchNorm2d-145           [-1, 32, 16, 16]              64
          Conv2d-146           [-1, 32, 16, 16]           9,216
     BatchNorm2d-147           [-1, 32, 16, 16]              64
      BasicBlock-148           [-1, 32, 16, 16]               0
          Conv2d-149           [-1, 32, 16, 16]           9,216
     BatchNorm2d-150           [-1, 32, 16, 16]              64
          Conv2d-151           [-1, 32, 16, 16]           9,216
     BatchNorm2d-152           [-1, 32, 16, 16]              64
      BasicBlock-153           [-1, 32, 16, 16]               0
          Conv2d-154           [-1, 32, 16, 16]           9,216
     BatchNorm2d-155           [-1, 32, 16, 16]              64
          Conv2d-156           [-1, 32, 16, 16]           9,216
     BatchNorm2d-157           [-1, 32, 16, 16]              64
      BasicBlock-158           [-1, 32, 16, 16]               0
          Conv2d-159           [-1, 32, 16, 16]           9,216
     BatchNorm2d-160           [-1, 32, 16, 16]              64
          Conv2d-161           [-1, 32, 16, 16]           9,216
     BatchNorm2d-162           [-1, 32, 16, 16]              64
      BasicBlock-163           [-1, 32, 16, 16]               0
          Conv2d-164           [-1, 32, 16, 16]           9,216
     BatchNorm2d-165           [-1, 32, 16, 16]              64
          Conv2d-166           [-1, 32, 16, 16]           9,216
     BatchNorm2d-167           [-1, 32, 16, 16]              64
      BasicBlock-168           [-1, 32, 16, 16]               0
          Conv2d-169           [-1, 32, 16, 16]           9,216
     BatchNorm2d-170           [-1, 32, 16, 16]              64
          Conv2d-171           [-1, 32, 16, 16]           9,216
     BatchNorm2d-172           [-1, 32, 16, 16]              64
      BasicBlock-173           [-1, 32, 16, 16]               0
          Conv2d-174           [-1, 32, 16, 16]           9,216
     BatchNorm2d-175           [-1, 32, 16, 16]              64
          Conv2d-176           [-1, 32, 16, 16]           9,216
     BatchNorm2d-177           [-1, 32, 16, 16]              64
      BasicBlock-178           [-1, 32, 16, 16]               0
          Conv2d-179           [-1, 32, 16, 16]           9,216
     BatchNorm2d-180           [-1, 32, 16, 16]              64
          Conv2d-181           [-1, 32, 16, 16]           9,216
     BatchNorm2d-182           [-1, 32, 16, 16]              64
      BasicBlock-183           [-1, 32, 16, 16]               0
          Conv2d-184             [-1, 64, 8, 8]          18,432
     BatchNorm2d-185             [-1, 64, 8, 8]             128
          Conv2d-186             [-1, 64, 8, 8]          36,864
     BatchNorm2d-187             [-1, 64, 8, 8]             128
     LambdaLayer-188             [-1, 64, 8, 8]               0
      BasicBlock-189             [-1, 64, 8, 8]               0
          Conv2d-190             [-1, 64, 8, 8]          36,864
     BatchNorm2d-191             [-1, 64, 8, 8]             128
          Conv2d-192             [-1, 64, 8, 8]          36,864
     BatchNorm2d-193             [-1, 64, 8, 8]             128
      BasicBlock-194             [-1, 64, 8, 8]               0
          Conv2d-195             [-1, 64, 8, 8]          36,864
     BatchNorm2d-196             [-1, 64, 8, 8]             128
          Conv2d-197             [-1, 64, 8, 8]          36,864
     BatchNorm2d-198             [-1, 64, 8, 8]             128
      BasicBlock-199             [-1, 64, 8, 8]               0
          Conv2d-200             [-1, 64, 8, 8]          36,864
     BatchNorm2d-201             [-1, 64, 8, 8]             128
          Conv2d-202             [-1, 64, 8, 8]          36,864
     BatchNorm2d-203             [-1, 64, 8, 8]             128
      BasicBlock-204             [-1, 64, 8, 8]               0
          Conv2d-205             [-1, 64, 8, 8]          36,864
     BatchNorm2d-206             [-1, 64, 8, 8]             128
          Conv2d-207             [-1, 64, 8, 8]          36,864
     BatchNorm2d-208             [-1, 64, 8, 8]             128
      BasicBlock-209             [-1, 64, 8, 8]               0
          Conv2d-210             [-1, 64, 8, 8]          36,864
     BatchNorm2d-211             [-1, 64, 8, 8]             128
          Conv2d-212             [-1, 64, 8, 8]          36,864
     BatchNorm2d-213             [-1, 64, 8, 8]             128
      BasicBlock-214             [-1, 64, 8, 8]               0
          Conv2d-215             [-1, 64, 8, 8]          36,864
     BatchNorm2d-216             [-1, 64, 8, 8]             128
          Conv2d-217             [-1, 64, 8, 8]          36,864
     BatchNorm2d-218             [-1, 64, 8, 8]             128
      BasicBlock-219             [-1, 64, 8, 8]               0
          Conv2d-220             [-1, 64, 8, 8]          36,864
     BatchNorm2d-221             [-1, 64, 8, 8]             128
          Conv2d-222             [-1, 64, 8, 8]          36,864
     BatchNorm2d-223             [-1, 64, 8, 8]             128
      BasicBlock-224             [-1, 64, 8, 8]               0
          Conv2d-225             [-1, 64, 8, 8]          36,864
     BatchNorm2d-226             [-1, 64, 8, 8]             128
          Conv2d-227             [-1, 64, 8, 8]          36,864
     BatchNorm2d-228             [-1, 64, 8, 8]             128
      BasicBlock-229             [-1, 64, 8, 8]               0
          Conv2d-230             [-1, 64, 8, 8]          36,864
     BatchNorm2d-231             [-1, 64, 8, 8]             128
          Conv2d-232             [-1, 64, 8, 8]          36,864
     BatchNorm2d-233             [-1, 64, 8, 8]             128
      BasicBlock-234             [-1, 64, 8, 8]               0
          Conv2d-235             [-1, 64, 8, 8]          36,864
     BatchNorm2d-236             [-1, 64, 8, 8]             128
          Conv2d-237             [-1, 64, 8, 8]          36,864
     BatchNorm2d-238             [-1, 64, 8, 8]             128
      BasicBlock-239             [-1, 64, 8, 8]               0
          Conv2d-240             [-1, 64, 8, 8]          36,864
     BatchNorm2d-241             [-1, 64, 8, 8]             128
          Conv2d-242             [-1, 64, 8, 8]          36,864
     BatchNorm2d-243             [-1, 64, 8, 8]             128
      BasicBlock-244             [-1, 64, 8, 8]               0
          Conv2d-245             [-1, 64, 8, 8]          36,864
     BatchNorm2d-246             [-1, 64, 8, 8]             128
          Conv2d-247             [-1, 64, 8, 8]          36,864
     BatchNorm2d-248             [-1, 64, 8, 8]             128
      BasicBlock-249             [-1, 64, 8, 8]               0
          Conv2d-250             [-1, 64, 8, 8]          36,864
     BatchNorm2d-251             [-1, 64, 8, 8]             128
          Conv2d-252             [-1, 64, 8, 8]          36,864
     BatchNorm2d-253             [-1, 64, 8, 8]             128
      BasicBlock-254             [-1, 64, 8, 8]               0
          Conv2d-255             [-1, 64, 8, 8]          36,864
     BatchNorm2d-256             [-1, 64, 8, 8]             128
          Conv2d-257             [-1, 64, 8, 8]          36,864
     BatchNorm2d-258             [-1, 64, 8, 8]             128
      BasicBlock-259             [-1, 64, 8, 8]               0
          Conv2d-260             [-1, 64, 8, 8]          36,864
     BatchNorm2d-261             [-1, 64, 8, 8]             128
          Conv2d-262             [-1, 64, 8, 8]          36,864
     BatchNorm2d-263             [-1, 64, 8, 8]             128
      BasicBlock-264             [-1, 64, 8, 8]               0
          Conv2d-265             [-1, 64, 8, 8]          36,864
     BatchNorm2d-266             [-1, 64, 8, 8]             128
          Conv2d-267             [-1, 64, 8, 8]          36,864
     BatchNorm2d-268             [-1, 64, 8, 8]             128
      BasicBlock-269             [-1, 64, 8, 8]               0
          Conv2d-270             [-1, 64, 8, 8]          36,864
     BatchNorm2d-271             [-1, 64, 8, 8]             128
          Conv2d-272             [-1, 64, 8, 8]          36,864
     BatchNorm2d-273             [-1, 64, 8, 8]             128
      BasicBlock-274             [-1, 64, 8, 8]               0
          Linear-275                   [-1, 10]             650
================================================================
Total params: 1,727,962
Trainable params: 1,719,866
Non-trainable params: 8,096
----------------------------------------------------------------
Input size (MB): 0.01
Forward/backward pass size (MB): 20.03
Params size (MB): 6.59
Estimated Total Size (MB): 26.63
----------------------------------------------------------------
=> no checkpoint found at 'None'
…
