----------------------------------------------------------------
        Layer (type)               Output Shape         Param #
================================================================
            Conv2d-1           [-1, 16, 32, 32]             432
       BatchNorm2d-2           [-1, 16, 32, 32]              32
            Conv2d-3           [-1, 16, 32, 32]           2,304
       BatchNorm2d-4           [-1, 16, 32, 32]              32
            Conv2d-5           [-1, 16, 32, 32]           2,304
       BatchNorm2d-6           [-1, 16, 32, 32]              32
        BasicBlock-7           [-1, 16, 32, 32]               0
            Conv2d-8           [-1, 16, 32, 32]           2,304
       BatchNorm2d-9           [-1, 16, 32, 32]              32
           Conv2d-10           [-1, 16, 32, 32]           2,304
      BatchNorm2d-11           [-1, 16, 32, 32]              32
       BasicBlock-12           [-1, 16, 32, 32]               0
           Conv2d-13           [-1, 16, 32, 32]           2,304
      BatchNorm2d-14           [-1, 16, 32, 32]              32
           Conv2d-15           [-1, 16, 32, 32]           2,304
      BatchNorm2d-16           [-1, 16, 32, 32]              32
       BasicBlock-17           [-1, 16, 32, 32]               0
           Conv2d-18           [-1, 16, 32, 32]           2,304
      BatchNorm2d-19           [-1, 16, 32, 32]              32
           Conv2d-20           [-1, 16, 32, 32]           2,304
      BatchNorm2d-21           [-1, 16, 32, 32]              32
       BasicBlock-22           [-1, 16, 32, 32]               0
           Conv2d-23           [-1, 16, 32, 32]           2,304
      BatchNorm2d-24           [-1, 16, 32, 32]              32
           Conv2d-25           [-1, 16, 32, 32]           2,304
      BatchNorm2d-26           [-1, 16, 32, 32]              32
       BasicBlock-27           [-1, 16, 32, 32]               0
           Conv2d-28           [-1, 16, 32, 32]           2,304
      BatchNorm2d-29           [-1, 16, 32, 32]              32
           Conv2d-30           [-1, 16, 32, 32]           2,304
      BatchNorm2d-31           [-1, 16, 32, 32]              32
       BasicBlock-32           [-1, 16, 32, 32]               0
           Conv2d-33           [-1, 16, 32, 32]           2,304
      BatchNorm2d-34           [-1, 16, 32, 32]              32
           Conv2d-35           [-1, 16, 32, 32]           2,304
      BatchNorm2d-36           [-1, 16, 32, 32]              32
       BasicBlock-37           [-1, 16, 32, 32]               0
           Conv2d-38           [-1, 16, 32, 32]           2,304
      BatchNorm2d-39           [-1, 16, 32, 32]              32
           Conv2d-40           [-1, 16, 32, 32]           2,304
      BatchNorm2d-41           [-1, 16, 32, 32]              32
       BasicBlock-42           [-1, 16, 32, 32]               0
           Conv2d-43           [-1, 16, 32, 32]           2,304
      BatchNorm2d-44           [-1, 16, 32, 32]              32
           Conv2d-45           [-1, 16, 32, 32]           2,304
      BatchNorm2d-46           [-1, 16, 32, 32]              32
       BasicBlock-47           [-1, 16, 32, 32]               0
           Conv2d-48           [-1, 16, 32, 32]           2,304
      BatchNorm2d-49           [-1, 16, 32, 32]              32
           Conv2d-50           [-1, 16, 32, 32]           2,304
      BatchNorm2d-51           [-1, 16, 32, 32]              32
       BasicBlock-52           [-1, 16, 32, 32]               0
           Conv2d-53           [-1, 16, 32, 32]           2,304
      BatchNorm2d-54           [-1, 16, 32, 32]              32
           Conv2d-55           [-1, 16, 32, 32]           2,304
      BatchNorm2d-56           [-1, 16, 32, 32]              32
       BasicBlock-57           [-1, 16, 32, 32]               0
           Conv2d-58           [-1, 16, 32, 32]           2,304
      BatchNorm2d-59           [-1, 16, 32, 32]              32
           Conv2d-60           [-1, 16, 32, 32]           2,304
      BatchNorm2d-61           [-1, 16, 32, 32]              32
       BasicBlock-62           [-1, 16, 32, 32]               0
           Conv2d-63           [-1, 16, 32, 32]           2,304
      BatchNorm2d-64           [-1, 16, 32, 32]              32
           Conv2d-65           [-1, 16, 32, 32]           2,304
      BatchNorm2d-66           [-1, 16, 32, 32]              32
       BasicBlock-67           [-1, 16, 32, 32]               0
           Conv2d-68           [-1, 16, 32, 32]           2,304
      BatchNorm2d-69           [-1, 16, 32, 32]              32
           Conv2d-70           [-1, 16, 32, 32]           2,304
      BatchNorm2d-71           [-1, 16, 32, 32]              32
       BasicBlock-72           [-1, 16, 32, 32]               0
           Conv2d-73           [-1, 16, 32, 32]           2,304
      BatchNorm2d-74           [-1, 16, 32, 32]              32
           Conv2d-75           [-1, 16, 32, 32]           2,304
      BatchNorm2d-76           [-1, 16, 32, 32]              32
       BasicBlock-77           [-1, 16, 32, 32]               0
           Conv2d-78           [-1, 16, 32, 32]           2,304
      BatchNorm2d-79           [-1, 16, 32, 32]              32
           Conv2d-80           [-1, 16, 32, 32]           2,304
      BatchNorm2d-81           [-1, 16, 32, 32]              32
       BasicBlock-82           [-1, 16, 32, 32]               0
           Conv2d-83           [-1, 16, 32, 32]           2,304
      BatchNorm2d-84           [-1, 16, 32, 32]              32
           Conv2d-85           [-1, 16, 32, 32]           2,304
      BatchNorm2d-86           [-1, 16, 32, 32]              32
       BasicBlock-87           [-1, 16, 32, 32]               0
           Conv2d-88           [-1, 16, 32, 32]           2,304
      BatchNorm2d-89           [-1, 16, 32, 32]              32
           Conv2d-90           [-1, 16, 32, 32]           2,304
      BatchNorm2d-91           [-1, 16, 32, 32]              32
       BasicBlock-92           [-1, 16, 32, 32]               0
           Conv2d-93           [-1, 16, 32, 32]           2,304
      BatchNorm2d-94           [-1, 16, 32, 32]              32
           Conv2d-95           [-1, 16, 32, 32]           2,304
      BatchNorm2d-96           [-1, 16, 32, 32]              32
       BasicBlock-97           [-1, 16, 32, 32]               0
           Conv2d-98           [-1, 16, 32, 32]           2,304
      BatchNorm2d-99           [-1, 16, 32, 32]              32
          Conv2d-100           [-1, 16, 32, 32]           2,304
     BatchNorm2d-101           [-1, 16, 32, 32]              32
      BasicBlock-102           [-1, 16, 32, 32]               0
          Conv2d-103           [-1, 16, 32, 32]           2,304
     BatchNorm2d-104           [-1, 16, 32, 32]              32
          Conv2d-105           [-1, 16, 32, 32]           2,304
     BatchNorm2d-106           [-1, 16, 32, 32]              32
      BasicBlock-107           [-1, 16, 32, 32]               0
          Conv2d-108           [-1, 16, 32, 32]           2,304
     BatchNorm2d-109           [-1, 16, 32, 32]              32
          Conv2d-110           [-1, 16, 32, 32]           2,304
     BatchNorm2d-111           [-1, 16, 32, 32]              32
      BasicBlock-112           [-1, 16, 32, 32]               0
          Conv2d-113           [-1, 16, 32, 32]           2,304
     BatchNorm2d-114           [-1, 16, 32, 32]              32
          Conv2d-115           [-1, 16, 32, 32]           2,304
     BatchNorm2d-116           [-1, 16, 32, 32]              32
      BasicBlock-117           [-1, 16, 32, 32]               0
          Conv2d-118           [-1, 16, 32, 32]           2,304
     BatchNorm2d-119           [-1, 16, 32, 32]              32
          Conv2d-120           [-1, 16, 32, 32]           2,304
     BatchNorm2d-121           [-1, 16, 32, 32]              32
      BasicBlock-122           [-1, 16, 32, 32]               0
          Conv2d-123           [-1, 16, 32, 32]           2,304
     BatchNorm2d-124           [-1, 16, 32, 32]              32
          Conv2d-125           [-1, 16, 32, 32]           2,304
     BatchNorm2d-126           [-1, 16, 32, 32]              32
      BasicBlock-127           [-1, 16, 32, 32]               0
          Conv2d-128           [-1, 16, 32, 32]           2,304
     BatchNorm2d-129           [-1, 16, 32, 32]              32
          Conv2d-130           [-1, 16, 32, 32]           2,304
     BatchNorm2d-131           [-1, 16, 32, 32]              32
      BasicBlock-132           [-1, 16, 32, 32]               0
          Conv2d-133           [-1, 16, 32, 32]           2,304
     BatchNorm2d-134           [-1, 16, 32, 32]              32
          Conv2d-135           [-1, 16, 32, 32]           2,304
     BatchNorm2d-136           [-1, 16, 32, 32]              32
      BasicBlock-137           [-1, 16, 32, 32]               0
          Conv2d-138           [-1, 16, 32, 32]           2,304
     BatchNorm2d-139           [-1, 16, 32, 32]              32
          Conv2d-140           [-1, 16, 32, 32]           2,304
     BatchNorm2d-141           [-1, 16, 32, 32]              32
      BasicBlock-142           [-1, 16, 32, 32]               0
          Conv2d-143           [-1, 16, 32, 32]           2,304
     BatchNorm2d-144           [-1, 16, 32, 32]              32
          Conv2d-145           [-1, 16, 32, 32]           2,304
     BatchNorm2d-146           [-1, 16, 32, 32]              32
      BasicBlock-147           [-1, 16, 32, 32]               0
          Conv2d-148           [-1, 16, 32, 32]           2,304
     BatchNorm2d-149           [-1, 16, 32, 32]              32
          Conv2d-150           [-1, 16, 32, 32]           2,304
     BatchNorm2d-151           [-1, 16, 32, 32]              32
      BasicBlock-152           [-1, 16, 32, 32]               0
          Conv2d-153           [-1, 16, 32, 32]           2,304
     BatchNorm2d-154           [-1, 16, 32, 32]              32
          Conv2d-155           [-1, 16, 32, 32]           2,304
     BatchNorm2d-156           [-1, 16, 32, 32]              32
      BasicBlock-157           [-1, 16, 32, 32]               0
          Conv2d-158           [-1, 16, 32, 32]           2,304
     BatchNorm2d-159           [-1, 16, 32, 32]              32
          Conv2d-160           [-1, 16, 32, 32]           2,304
     BatchNorm2d-161           [-1, 16, 32, 32]              32
      BasicBlock-162           [-1, 16, 32, 32]               0
          Conv2d-163           [-1, 16, 32, 32]           2,304
     BatchNorm2d-164           [-1, 16, 32, 32]              32
          Conv2d-165           [-1, 16, 32, 32]           2,304
     BatchNorm2d-166           [-1, 16, 32, 32]              32
      BasicBlock-167           [-1, 16, 32, 32]               0
          Conv2d-168           [-1, 16, 32, 32]           2,304
     BatchNorm2d-169           [-1, 16, 32, 32]              32
          Conv2d-170           [-1, 16, 32, 32]           2,304
     BatchNorm2d-171           [-1, 16, 32, 32]              32
      BasicBlock-172           [-1, 16, 32, 32]               0
          Conv2d-173           [-1, 16, 32, 32]           2,304
     BatchNorm2d-174           [-1, 16, 32, 32]              32
          Conv2d-175           [-1, 16, 32, 32]           2,304
     BatchNorm2d-176           [-1, 16, 32, 32]              32
      BasicBlock-177           [-1, 16, 32, 32]               0
          Conv2d-178           [-1, 16, 32, 32]           2,304
     BatchNorm2d-179           [-1, 16, 32, 32]              32
          Conv2d-180           [-1, 16, 32, 32]           2,304
     BatchNorm2d-181           [-1, 16, 32, 32]              32
      BasicBlock-182           [-1, 16, 32, 32]               0
          Conv2d-183           [-1, 16, 32, 32]           2,304
     BatchNorm2d-184           [-1, 16, 32, 32]              32
          Conv2d-185           [-1, 16, 32, 32]           2,304
     BatchNorm2d-186           [-1, 16, 32, 32]              32
      BasicBlock-187           [-1, 16, 32, 32]               0
          Conv2d-188           [-1, 16, 32, 32]           2,304
     BatchNorm2d-189           [-1, 16, 32, 32]              32
          Conv2d-190           [-1, 16, 32, 32]           2,304
     BatchNorm2d-191           [-1, 16, 32, 32]              32
      BasicBlock-192           [-1, 16, 32, 32]               0
          Conv2d-193           [-1, 16, 32, 32]           2,304
     BatchNorm2d-194           [-1, 16, 32, 32]              32
          Conv2d-195           [-1, 16, 32, 32]           2,304
     BatchNorm2d-196           [-1, 16, 32, 32]              32
      BasicBlock-197           [-1, 16, 32, 32]               0
          Conv2d-198           [-1, 16, 32, 32]           2,304
     BatchNorm2d-199           [-1, 16, 32, 32]              32
          Conv2d-200           [-1, 16, 32, 32]           2,304
     BatchNorm2d-201           [-1, 16, 32, 32]              32
      BasicBlock-202           [-1, 16, 32, 32]               0
          Conv2d-203           [-1, 16, 32, 32]           2,304
     BatchNorm2d-204           [-1, 16, 32, 32]              32
          Conv2d-205           [-1, 16, 32, 32]           2,304
     BatchNorm2d-206           [-1, 16, 32, 32]              32
      BasicBlock-207           [-1, 16, 32, 32]               0
          Conv2d-208           [-1, 16, 32, 32]           2,304
     BatchNorm2d-209           [-1, 16, 32, 32]              32
          Conv2d-210           [-1, 16, 32, 32]           2,304
     BatchNorm2d-211           [-1, 16, 32, 32]              32
      BasicBlock-212           [-1, 16, 32, 32]               0
          Conv2d-213           [-1, 16, 32, 32]           2,304
     BatchNorm2d-214           [-1, 16, 32, 32]              32
          Conv2d-215           [-1, 16, 32, 32]           2,304
     BatchNorm2d-216           [-1, 16, 32, 32]              32
      BasicBlock-217           [-1, 16, 32, 32]               0
          Conv2d-218           [-1, 16, 32, 32]           2,304
     BatchNorm2d-219           [-1, 16, 32, 32]              32
          Conv2d-220           [-1, 16, 32, 32]           2,304
     BatchNorm2d-221           [-1, 16, 32, 32]              32
      BasicBlock-222           [-1, 16, 32, 32]               0
          Conv2d-223           [-1, 16, 32, 32]           2,304
     BatchNorm2d-224           [-1, 16, 32, 32]              32
          Conv2d-225           [-1, 16, 32, 32]           2,304
     BatchNorm2d-226           [-1, 16, 32, 32]              32
      BasicBlock-227           [-1, 16, 32, 32]               0
          Conv2d-228           [-1, 16, 32, 32]           2,304
     BatchNorm2d-229           [-1, 16, 32, 32]              32
          Conv2d-230           [-1, 16, 32, 32]           2,304
     BatchNorm2d-231           [-1, 16, 32, 32]              32
      BasicBlock-232           [-1, 16, 32, 32]               0
          Conv2d-233           [-1, 16, 32, 32]           2,304
     BatchNorm2d-234           [-1, 16, 32, 32]              32
          Conv2d-235           [-1, 16, 32, 32]           2,304
     BatchNorm2d-236           [-1, 16, 32, 32]              32
      BasicBlock-237           [-1, 16, 32, 32]               0
          Conv2d-238           [-1, 16, 32, 32]           2,304
     BatchNorm2d-239           [-1, 16, 32, 32]              32
          Conv2d-240           [-1, 16, 32, 32]           2,304
     BatchNorm2d-241           [-1, 16, 32, 32]              32
      BasicBlock-242           [-1, 16, 32, 32]               0
          Conv2d-243           [-1, 16, 32, 32]           2,304
     BatchNorm2d-244           [-1, 16, 32, 32]              32
          Conv2d-245           [-1, 16, 32, 32]           2,304
     BatchNorm2d-246           [-1, 16, 32, 32]              32
      BasicBlock-247           [-1, 16, 32, 32]               0
          Conv2d-248           [-1, 16, 32, 32]           2,304
     BatchNorm2d-249           [-1, 16, 32, 32]              32
          Conv2d-250           [-1, 16, 32, 32]           2,304
     BatchNorm2d-251           [-1, 16, 32, 32]              32
      BasicBlock-252           [-1, 16, 32, 32]               0
          Conv2d-253           [-1, 16, 32, 32]           2,304
     BatchNorm2d-254           [-1, 16, 32, 32]              32
          Conv2d-255           [-1, 16, 32, 32]           2,304
     BatchNorm2d-256           [-1, 16, 32, 32]              32
      BasicBlock-257           [-1, 16, 32, 32]               0
          Conv2d-258           [-1, 16, 32, 32]           2,304
     BatchNorm2d-259           [-1, 16, 32, 32]              32
          Conv2d-260           [-1, 16, 32, 32]           2,304
     BatchNorm2d-261           [-1, 16, 32, 32]              32
      BasicBlock-262           [-1, 16, 32, 32]               0
          Conv2d-263           [-1, 16, 32, 32]           2,304
     BatchNorm2d-264           [-1, 16, 32, 32]              32
          Conv2d-265           [-1, 16, 32, 32]           2,304
     BatchNorm2d-266           [-1, 16, 32, 32]              32
      BasicBlock-267           [-1, 16, 32, 32]               0
          Conv2d-268           [-1, 16, 32, 32]           2,304
     BatchNorm2d-269           [-1, 16, 32, 32]              32
          Conv2d-270           [-1, 16, 32, 32]           2,304
     BatchNorm2d-271           [-1, 16, 32, 32]              32
      BasicBlock-272           [-1, 16, 32, 32]               0
          Conv2d-273           [-1, 16, 32, 32]           2,304
     BatchNorm2d-274           [-1, 16, 32, 32]              32
          Conv2d-275           [-1, 16, 32, 32]           2,304
     BatchNorm2d-276           [-1, 16, 32, 32]              32
      BasicBlock-277           [-1, 16, 32, 32]               0
          Conv2d-278           [-1, 16, 32, 32]           2,304
     BatchNorm2d-279           [-1, 16, 32, 32]              32
          Conv2d-280           [-1, 16, 32, 32]           2,304
     BatchNorm2d-281           [-1, 16, 32, 32]              32
      BasicBlock-282           [-1, 16, 32, 32]               0
          Conv2d-283           [-1, 16, 32, 32]           2,304
     BatchNorm2d-284           [-1, 16, 32, 32]              32
          Conv2d-285           [-1, 16, 32, 32]           2,304
     BatchNorm2d-286           [-1, 16, 32, 32]              32
      BasicBlock-287           [-1, 16, 32, 32]               0
          Conv2d-288           [-1, 16, 32, 32]           2,304
     BatchNorm2d-289           [-1, 16, 32, 32]              32
          Conv2d-290           [-1, 16, 32, 32]           2,304
     BatchNorm2d-291           [-1, 16, 32, 32]              32
      BasicBlock-292           [-1, 16, 32, 32]               0
          Conv2d-293           [-1, 16, 32, 32]           2,304
     BatchNorm2d-294           [-1, 16, 32, 32]              32
          Conv2d-295           [-1, 16, 32, 32]           2,304
     BatchNorm2d-296           [-1, 16, 32, 32]              32
      BasicBlock-297           [-1, 16, 32, 32]               0
          Conv2d-298           [-1, 16, 32, 32]           2,304
     BatchNorm2d-299           [-1, 16, 32, 32]              32
          Conv2d-300           [-1, 16, 32, 32]           2,304
     BatchNorm2d-301           [-1, 16, 32, 32]              32
      BasicBlock-302           [-1, 16, 32, 32]               0
          Conv2d-303           [-1, 16, 32, 32]           2,304
     BatchNorm2d-304           [-1, 16, 32, 32]              32
          Conv2d-305           [-1, 16, 32, 32]           2,304
     BatchNorm2d-306           [-1, 16, 32, 32]              32
      BasicBlock-307           [-1, 16, 32, 32]               0
          Conv2d-308           [-1, 16, 32, 32]           2,304
     BatchNorm2d-309           [-1, 16, 32, 32]              32
          Conv2d-310           [-1, 16, 32, 32]           2,304
     BatchNorm2d-311           [-1, 16, 32, 32]              32
      BasicBlock-312           [-1, 16, 32, 32]               0
          Conv2d-313           [-1, 16, 32, 32]           2,304
     BatchNorm2d-314           [-1, 16, 32, 32]              32
          Conv2d-315           [-1, 16, 32, 32]           2,304
     BatchNorm2d-316           [-1, 16, 32, 32]              32
      BasicBlock-317           [-1, 16, 32, 32]               0
          Conv2d-318           [-1, 16, 32, 32]           2,304
     BatchNorm2d-319           [-1, 16, 32, 32]              32
          Conv2d-320           [-1, 16, 32, 32]           2,304
     BatchNorm2d-321           [-1, 16, 32, 32]              32
      BasicBlock-322           [-1, 16, 32, 32]               0
          Conv2d-323           [-1, 16, 32, 32]           2,304
     BatchNorm2d-324           [-1, 16, 32, 32]              32
          Conv2d-325           [-1, 16, 32, 32]           2,304
     BatchNorm2d-326           [-1, 16, 32, 32]              32
      BasicBlock-327           [-1, 16, 32, 32]               0
          Conv2d-328           [-1, 16, 32, 32]           2,304
     BatchNorm2d-329           [-1, 16, 32, 32]              32
          Conv2d-330           [-1, 16, 32, 32]           2,304
     BatchNorm2d-331           [-1, 16, 32, 32]              32
      BasicBlock-332           [-1, 16, 32, 32]               0
          Conv2d-333           [-1, 16, 32, 32]           2,304
     BatchNorm2d-334           [-1, 16, 32, 32]              32
          Conv2d-335           [-1, 16, 32, 32]           2,304
     BatchNorm2d-336           [-1, 16, 32, 32]              32
      BasicBlock-337           [-1, 16, 32, 32]               0
          Conv2d-338           [-1, 16, 32, 32]           2,304
     BatchNorm2d-339           [-1, 16, 32, 32]              32
          Conv2d-340           [-1, 16, 32, 32]           2,304
     BatchNorm2d-341           [-1, 16, 32, 32]              32
      BasicBlock-342           [-1, 16, 32, 32]               0
          Conv2d-343           [-1, 16, 32, 32]           2,304
     BatchNorm2d-344           [-1, 16, 32, 32]              32
          Conv2d-345           [-1, 16, 32, 32]           2,304
     BatchNorm2d-346           [-1, 16, 32, 32]              32
      BasicBlock-347           [-1, 16, 32, 32]               0
          Conv2d-348           [-1, 16, 32, 32]           2,304
     BatchNorm2d-349           [-1, 16, 32, 32]              32
          Conv2d-350           [-1, 16, 32, 32]           2,304
     BatchNorm2d-351           [-1, 16, 32, 32]              32
      BasicBlock-352           [-1, 16, 32, 32]               0
          Conv2d-353           [-1, 16, 32, 32]           2,304
     BatchNorm2d-354           [-1, 16, 32, 32]              32
          Conv2d-355           [-1, 16, 32, 32]           2,304
     BatchNorm2d-356           [-1, 16, 32, 32]              32
      BasicBlock-357           [-1, 16, 32, 32]               0
          Conv2d-358           [-1, 16, 32, 32]           2,304
     BatchNorm2d-359           [-1, 16, 32, 32]              32
          Conv2d-360           [-1, 16, 32, 32]           2,304
     BatchNorm2d-361           [-1, 16, 32, 32]              32
      BasicBlock-362           [-1, 16, 32, 32]               0
          Conv2d-363           [-1, 32, 16, 16]           4,608
     BatchNorm2d-364           [-1, 32, 16, 16]              64
          Conv2d-365           [-1, 32, 16, 16]           9,216
     BatchNorm2d-366           [-1, 32, 16, 16]              64
     LambdaLayer-367           [-1, 32, 16, 16]               0
      BasicBlock-368           [-1, 32, 16, 16]               0
          Conv2d-369           [-1, 32, 16, 16]           9,216
     BatchNorm2d-370           [-1, 32, 16, 16]              64
          Conv2d-371           [-1, 32, 16, 16]           9,216
     BatchNorm2d-372           [-1, 32, 16, 16]              64
      BasicBlock-373           [-1, 32, 16, 16]               0
          Conv2d-374           [-1, 32, 16, 16]           9,216
     BatchNorm2d-375           [-1, 32, 16, 16]              64
          Conv2d-376           [-1, 32, 16, 16]           9,216
     BatchNorm2d-377           [-1, 32, 16, 16]              64
      BasicBlock-378           [-1, 32, 16, 16]               0
          Conv2d-379           [-1, 32, 16, 16]           9,216
     BatchNorm2d-380           [-1, 32, 16, 16]              64
          Conv2d-381           [-1, 32, 16, 16]           9,216
     BatchNorm2d-382           [-1, 32, 16, 16]              64
      BasicBlock-383           [-1, 32, 16, 16]               0
          Conv2d-384           [-1, 32, 16, 16]           9,216
     BatchNorm2d-385           [-1, 32, 16, 16]              64
          Conv2d-386           [-1, 32, 16, 16]           9,216
     BatchNorm2d-387           [-1, 32, 16, 16]              64
      BasicBlock-388           [-1, 32, 16, 16]               0
          Conv2d-389           [-1, 32, 16, 16]           9,216
     BatchNorm2d-390           [-1, 32, 16, 16]              64
          Conv2d-391           [-1, 32, 16, 16]           9,216
     BatchNorm2d-392           [-1, 32, 16, 16]              64
      BasicBlock-393           [-1, 32, 16, 16]               0
          Conv2d-394           [-1, 32, 16, 16]           9,216
     BatchNorm2d-395           [-1, 32, 16, 16]              64
          Conv2d-396           [-1, 32, 16, 16]           9,216
     BatchNorm2d-397           [-1, 32, 16, 16]              64
      BasicBlock-398           [-1, 32, 16, 16]               0
          Conv2d-399           [-1, 32, 16, 16]           9,216
     BatchNorm2d-400           [-1, 32, 16, 16]              64
          Conv2d-401           [-1, 32, 16, 16]           9,216
     BatchNorm2d-402           [-1, 32, 16, 16]              64
      BasicBlock-403           [-1, 32, 16, 16]               0
          Conv2d-404           [-1, 32, 16, 16]           9,216
     BatchNorm2d-405           [-1, 32, 16, 16]              64
          Conv2d-406           [-1, 32, 16, 16]           9,216
     BatchNorm2d-407           [-1, 32, 16, 16]              64
      BasicBlock-408           [-1, 32, 16, 16]               0
          Conv2d-409           [-1, 32, 16, 16]           9,216
     BatchNorm2d-410           [-1, 32, 16, 16]              64
          Conv2d-411           [-1, 32, 16, 16]           9,216
     BatchNorm2d-412           [-1, 32, 16, 16]              64
      BasicBlock-413           [-1, 32, 16, 16]               0
          Conv2d-414           [-1, 32, 16, 16]           9,216
     BatchNorm2d-415           [-1, 32, 16, 16]              64
          Conv2d-416           [-1, 32, 16, 16]           9,216
     BatchNorm2d-417           [-1, 32, 16, 16]              64
      BasicBlock-418           [-1, 32, 16, 16]               0
          Conv2d-419           [-1, 32, 16, 16]           9,216
     BatchNorm2d-420           [-1, 32, 16, 16]              64
          Conv2d-421           [-1, 32, 16, 16]           9,216
     BatchNorm2d-422           [-1, 32, 16, 16]              64
      BasicBlock-423           [-1, 32, 16, 16]               0
          Conv2d-424           [-1, 32, 16, 16]           9,216
     BatchNorm2d-425           [-1, 32, 16, 16]              64
          Conv2d-426           [-1, 32, 16, 16]           9,216
     BatchNorm2d-427           [-1, 32, 16, 16]              64
      BasicBlock-428           [-1, 32, 16, 16]               0
          Conv2d-429           [-1, 32, 16, 16]           9,216
     BatchNorm2d-430           [-1, 32, 16, 16]              64
          Conv2d-431           [-1, 32, 16, 16]           9,216
     BatchNorm2d-432           [-1, 32, 16, 16]              64
      BasicBlock-433           [-1, 32, 16, 16]               0
          Conv2d-434           [-1, 32, 16, 16]           9,216
     BatchNorm2d-435           [-1, 32, 16, 16]              64
          Conv2d-436           [-1, 32, 16, 16]           9,216
     BatchNorm2d-437           [-1, 32, 16, 16]              64
      BasicBlock-438           [-1, 32, 16, 16]               0
          Conv2d-439           [-1, 32, 16, 16]           9,216
     BatchNorm2d-440           [-1, 32, 16, 16]              64
          Conv2d-441           [-1, 32, 16, 16]           9,216
     BatchNorm2d-442           [-1, 32, 16, 16]              64
      BasicBlock-443           [-1, 32, 16, 16]               0
          Conv2d-444           [-1, 32, 16, 16]           9,216
     BatchNorm2d-445           [-1, 32, 16, 16]              64
          Conv2d-446           [-1, 32, 16, 16]           9,216
     BatchNorm2d-447           [-1, 32, 16, 16]              64
      BasicBlock-448           [-1, 32, 16, 16]               0
          Conv2d-449           [-1, 32, 16, 16]           9,216
     BatchNorm2d-450           [-1, 32, 16, 16]              64
          Conv2d-451           [-1, 32, 16, 16]           9,216
     BatchNorm2d-452           [-1, 32, 16, 16]              64
      BasicBlock-453           [-1, 32, 16, 16]               0
          Conv2d-454           [-1, 32, 16, 16]           9,216
     BatchNorm2d-455           [-1, 32, 16, 16]              64
          Conv2d-456           [-1, 32, 16, 16]           9,216
     BatchNorm2d-457           [-1, 32, 16, 16]              64
      BasicBlock-458           [-1, 32, 16, 16]               0
          Conv2d-459           [-1, 32, 16, 16]           9,216
     BatchNorm2d-460           [-1, 32, 16, 16]              64
          Conv2d-461           [-1, 32, 16, 16]           9,216
     BatchNorm2d-462           [-1, 32, 16, 16]              64
      BasicBlock-463           [-1, 32, 16, 16]               0
          Conv2d-464           [-1, 32, 16, 16]           9,216
     BatchNorm2d-465           [-1, 32, 16, 16]              64
          Conv2d-466           [-1, 32, 16, 16]           9,216
     BatchNorm2d-467           [-1, 32, 16, 16]              64
      BasicBlock-468           [-1, 32, 16, 16]               0
          Conv2d-469           [-1, 32, 16, 16]           9,216
     BatchNorm2d-470           [-1, 32, 16, 16]              64
          Conv2d-471           [-1, 32, 16, 16]           9,216
     BatchNorm2d-472           [-1, 32, 16, 16]              64
      BasicBlock-473           [-1, 32, 16, 16]               0
          Conv2d-474           [-1, 32, 16, 16]           9,216
     BatchNorm2d-475           [-1, 32, 16, 16]              64
          Conv2d-476           [-1, 32, 16, 16]           9,216
     BatchNorm2d-477           [-1, 32, 16, 16]              64
      BasicBlock-478           [-1, 32, 16, 16]               0
          Conv2d-479           [-1, 32, 16, 16]           9,216
     BatchNorm2d-480           [-1, 32, 16, 16]              64
          Conv2d-481           [-1, 32, 16, 16]           9,216
     BatchNorm2d-482           [-1, 32, 16, 16]              64
      BasicBlock-483           [-1, 32, 16, 16]               0
          Conv2d-484           [-1, 32, 16, 16]           9,216
     BatchNorm2d-485           [-1, 32, 16, 16]              64
          Conv2d-486           [-1, 32, 16, 16]           9,216
     BatchNorm2d-487           [-1, 32, 16, 16]              64
      BasicBlock-488           [-1, 32, 16, 16]               0
          Conv2d-489           [-1, 32, 16, 16]           9,216
     BatchNorm2d-490           [-1, 32, 16, 16]              64
          Conv2d-491           [-1, 32, 16, 16]           9,216
     BatchNorm2d-492           [-1, 32, 16, 16]              64
      BasicBlock-493           [-1, 32, 16, 16]               0
          Conv2d-494           [-1, 32, 16, 16]           9,216
     BatchNorm2d-495           [-1, 32, 16, 16]              64
          Conv2d-496           [-1, 32, 16, 16]           9,216
     BatchNorm2d-497           [-1, 32, 16, 16]              64
      BasicBlock-498           [-1, 32, 16, 16]               0
          Conv2d-499           [-1, 32, 16, 16]           9,216
     BatchNorm2d-500           [-1, 32, 16, 16]              64
          Conv2d-501           [-1, 32, 16, 16]           9,216
     BatchNorm2d-502           [-1, 32, 16, 16]              64
      BasicBlock-503           [-1, 32, 16, 16]               0
          Conv2d-504           [-1, 32, 16, 16]           9,216
     BatchNorm2d-505           [-1, 32, 16, 16]              64
          Conv2d-506           [-1, 32, 16, 16]           9,216
     BatchNorm2d-507           [-1, 32, 16, 16]              64
      BasicBlock-508           [-1, 32, 16, 16]               0
          Conv2d-509           [-1, 32, 16, 16]           9,216
     BatchNorm2d-510           [-1, 32, 16, 16]              64
          Conv2d-511           [-1, 32, 16, 16]           9,216
     BatchNorm2d-512           [-1, 32, 16, 16]              64
      BasicBlock-513           [-1, 32, 16, 16]               0
          Conv2d-514           [-1, 32, 16, 16]           9,216
     BatchNorm2d-515           [-1, 32, 16, 16]              64
          Conv2d-516           [-1, 32, 16, 16]           9,216
     BatchNorm2d-517           [-1, 32, 16, 16]              64
      BasicBlock-518           [-1, 32, 16, 16]               0
          Conv2d-519           [-1, 32, 16, 16]           9,216
     BatchNorm2d-520           [-1, 32, 16, 16]              64
          Conv2d-521           [-1, 32, 16, 16]           9,216
     BatchNorm2d-522           [-1, 32, 16, 16]              64
      BasicBlock-523           [-1, 32, 16, 16]               0
          Conv2d-524           [-1, 32, 16, 16]           9,216
     BatchNorm2d-525           [-1, 32, 16, 16]              64
          Conv2d-526           [-1, 32, 16, 16]           9,216
     BatchNorm2d-527           [-1, 32, 16, 16]              64
      BasicBlock-528           [-1, 32, 16, 16]               0
          Conv2d-529           [-1, 32, 16, 16]           9,216
     BatchNorm2d-530           [-1, 32, 16, 16]              64
          Conv2d-531           [-1, 32, 16, 16]           9,216
     BatchNorm2d-532           [-1, 32, 16, 16]              64
      BasicBlock-533           [-1, 32, 16, 16]               0
          Conv2d-534           [-1, 32, 16, 16]           9,216
     BatchNorm2d-535           [-1, 32, 16, 16]              64
          Conv2d-536           [-1, 32, 16, 16]           9,216
     BatchNorm2d-537           [-1, 32, 16, 16]              64
      BasicBlock-538           [-1, 32, 16, 16]               0
          Conv2d-539           [-1, 32, 16, 16]           9,216
     BatchNorm2d-540           [-1, 32, 16, 16]              64
          Conv2d-541           [-1, 32, 16, 16]           9,216
     BatchNorm2d-542           [-1, 32, 16, 16]              64
      BasicBlock-543           [-1, 32, 16, 16]               0
          Conv2d-544           [-1, 32, 16, 16]           9,216
     BatchNorm2d-545           [-1, 32, 16, 16]              64
          Conv2d-546           [-1, 32, 16, 16]           9,216
     BatchNorm2d-547           [-1, 32, 16, 16]              64
      BasicBlock-548           [-1, 32, 16, 16]               0
          Conv2d-549           [-1, 32, 16, 16]           9,216
     BatchNorm2d-550           [-1, 32, 16, 16]              64
          Conv2d-551           [-1, 32, 16, 16]           9,216
     BatchNorm2d-552           [-1, 32, 16, 16]              64
      BasicBlock-553           [-1, 32, 16, 16]               0
          Conv2d-554           [-1, 32, 16, 16]           9,216
     BatchNorm2d-555           [-1, 32, 16, 16]              64
          Conv2d-556           [-1, 32, 16, 16]           9,216
     BatchNorm2d-557           [-1, 32, 16, 16]              64
      BasicBlock-558           [-1, 32, 16, 16]               0
          Conv2d-559           [-1, 32, 16, 16]           9,216
     BatchNorm2d-560           [-1, 32, 16, 16]              64
          Conv2d-561           [-1, 32, 16, 16]           9,216
     BatchNorm2d-562           [-1, 32, 16, 16]              64
      BasicBlock-563           [-1, 32, 16, 16]               0
          Conv2d-564           [-1, 32, 16, 16]           9,216
     BatchNorm2d-565           [-1, 32, 16, 16]              64
          Conv2d-566           [-1, 32, 16, 16]           9,216
     BatchNorm2d-567           [-1, 32, 16, 16]              64
      BasicBlock-568           [-1, 32, 16, 16]               0
          Conv2d-569           [-1, 32, 16, 16]           9,216
     BatchNorm2d-570           [-1, 32, 16, 16]              64
          Conv2d-571           [-1, 32, 16, 16]           9,216
     BatchNorm2d-572           [-1, 32, 16, 16]              64
      BasicBlock-573           [-1, 32, 16, 16]               0
          Conv2d-574           [-1, 32, 16, 16]           9,216
     BatchNorm2d-575           [-1, 32, 16, 16]              64
          Conv2d-576           [-1, 32, 16, 16]           9,216
     BatchNorm2d-577           [-1, 32, 16, 16]              64
      BasicBlock-578           [-1, 32, 16, 16]               0
          Conv2d-579           [-1, 32, 16, 16]           9,216
     BatchNorm2d-580           [-1, 32, 16, 16]              64
          Conv2d-581           [-1, 32, 16, 16]           9,216
     BatchNorm2d-582           [-1, 32, 16, 16]              64
      BasicBlock-583           [-1, 32, 16, 16]               0
          Conv2d-584           [-1, 32, 16, 16]           9,216
     BatchNorm2d-585           [-1, 32, 16, 16]              64
          Conv2d-586           [-1, 32, 16, 16]           9,216
     BatchNorm2d-587           [-1, 32, 16, 16]              64
      BasicBlock-588           [-1, 32, 16, 16]               0
          Conv2d-589           [-1, 32, 16, 16]           9,216
     BatchNorm2d-590           [-1, 32, 16, 16]              64
          Conv2d-591           [-1, 32, 16, 16]           9,216
     BatchNorm2d-592           [-1, 32, 16, 16]              64
      BasicBlock-593           [-1, 32, 16, 16]               0
          Conv2d-594           [-1, 32, 16, 16]           9,216
     BatchNorm2d-595           [-1, 32, 16, 16]              64
          Conv2d-596           [-1, 32, 16, 16]           9,216
     BatchNorm2d-597           [-1, 32, 16, 16]              64
      BasicBlock-598           [-1, 32, 16, 16]               0
          Conv2d-599           [-1, 32, 16, 16]           9,216
     BatchNorm2d-600           [-1, 32, 16, 16]              64
          Conv2d-601           [-1, 32, 16, 16]           9,216
     BatchNorm2d-602           [-1, 32, 16, 16]              64
      BasicBlock-603           [-1, 32, 16, 16]               0
          Conv2d-604           [-1, 32, 16, 16]           9,216
     BatchNorm2d-605           [-1, 32, 16, 16]              64
          Conv2d-606           [-1, 32, 16, 16]           9,216
     BatchNorm2d-607           [-1, 32, 16, 16]              64
      BasicBlock-608           [-1, 32, 16, 16]               0
          Conv2d-609           [-1, 32, 16, 16]           9,216
     BatchNorm2d-610           [-1, 32, 16, 16]              64
          Conv2d-611           [-1, 32, 16, 16]           9,216
     BatchNorm2d-612           [-1, 32, 16, 16]              64
      BasicBlock-613           [-1, 32, 16, 16]               0
          Conv2d-614           [-1, 32, 16, 16]           9,216
     BatchNorm2d-615           [-1, 32, 16, 16]              64
          Conv2d-616           [-1, 32, 16, 16]           9,216
     BatchNorm2d-617           [-1, 32, 16, 16]              64
      BasicBlock-618           [-1, 32, 16, 16]               0
          Conv2d-619           [-1, 32, 16, 16]           9,216
     BatchNorm2d-620           [-1, 32, 16, 16]              64
          Conv2d-621           [-1, 32, 16, 16]           9,216
     BatchNorm2d-622           [-1, 32, 16, 16]              64
      BasicBlock-623           [-1, 32, 16, 16]               0
          Conv2d-624           [-1, 32, 16, 16]           9,216
     BatchNorm2d-625           [-1, 32, 16, 16]              64
          Conv2d-626           [-1, 32, 16, 16]           9,216
     BatchNorm2d-627           [-1, 32, 16, 16]              64
      BasicBlock-628           [-1, 32, 16, 16]               0
          Conv2d-629           [-1, 32, 16, 16]           9,216
     BatchNorm2d-630           [-1, 32, 16, 16]              64
          Conv2d-631           [-1, 32, 16, 16]           9,216
     BatchNorm2d-632           [-1, 32, 16, 16]              64
      BasicBlock-633           [-1, 32, 16, 16]               0
          Conv2d-634           [-1, 32, 16, 16]           9,216
     BatchNorm2d-635           [-1, 32, 16, 16]              64
          Conv2d-636           [-1, 32, 16, 16]           9,216
     BatchNorm2d-637           [-1, 32, 16, 16]              64
      BasicBlock-638           [-1, 32, 16, 16]               0
          Conv2d-639           [-1, 32, 16, 16]           9,216
     BatchNorm2d-640           [-1, 32, 16, 16]              64
          Conv2d-641           [-1, 32, 16, 16]           9,216
     BatchNorm2d-642           [-1, 32, 16, 16]              64
      BasicBlock-643           [-1, 32, 16, 16]               0
          Conv2d-644           [-1, 32, 16, 16]           9,216
     BatchNorm2d-645           [-1, 32, 16, 16]              64
          Conv2d-646           [-1, 32, 16, 16]           9,216
     BatchNorm2d-647           [-1, 32, 16, 16]              64
      BasicBlock-648           [-1, 32, 16, 16]               0
          Conv2d-649           [-1, 32, 16, 16]           9,216
     BatchNorm2d-650           [-1, 32, 16, 16]              64
          Conv2d-651           [-1, 32, 16, 16]           9,216
     BatchNorm2d-652           [-1, 32, 16, 16]              64
      BasicBlock-653           [-1, 32, 16, 16]               0
          Conv2d-654           [-1, 32, 16, 16]           9,216
     BatchNorm2d-655           [-1, 32, 16, 16]              64
          Conv2d-656           [-1, 32, 16, 16]           9,216
     BatchNorm2d-657           [-1, 32, 16, 16]              64
      BasicBlock-658           [-1, 32, 16, 16]               0
          Conv2d-659           [-1, 32, 16, 16]           9,216
     BatchNorm2d-660           [-1, 32, 16, 16]              64
          Conv2d-661           [-1, 32, 16, 16]           9,216
     BatchNorm2d-662           [-1, 32, 16, 16]              64
      BasicBlock-663           [-1, 32, 16, 16]               0
          Conv2d-664           [-1, 32, 16, 16]           9,216
     BatchNorm2d-665           [-1, 32, 16, 16]              64
          Conv2d-666           [-1, 32, 16, 16]           9,216
     BatchNorm2d-667           [-1, 32, 16, 16]              64
      BasicBlock-668           [-1, 32, 16, 16]               0
          Conv2d-669           [-1, 32, 16, 16]           9,216
     BatchNorm2d-670           [-1, 32, 16, 16]              64
          Conv2d-671           [-1, 32, 16, 16]           9,216
     BatchNorm2d-672           [-1, 32, 16, 16]              64
      BasicBlock-673           [-1, 32, 16, 16]               0
          Conv2d-674           [-1, 32, 16, 16]           9,216
     BatchNorm2d-675           [-1, 32, 16, 16]              64
          Conv2d-676           [-1, 32, 16, 16]           9,216
     BatchNorm2d-677           [-1, 32, 16, 16]              64
      BasicBlock-678           [-1, 32, 16, 16]               0
          Conv2d-679           [-1, 32, 16, 16]           9,216
     BatchNorm2d-680           [-1, 32, 16, 16]              64
          Conv2d-681           [-1, 32, 16, 16]           9,216
     BatchNorm2d-682           [-1, 32, 16, 16]              64
      BasicBlock-683           [-1, 32, 16, 16]               0
          Conv2d-684           [-1, 32, 16, 16]           9,216
     BatchNorm2d-685           [-1, 32, 16, 16]              64
          Conv2d-686           [-1, 32, 16, 16]           9,216
     BatchNorm2d-687           [-1, 32, 16, 16]              64
      BasicBlock-688           [-1, 32, 16, 16]               0
          Conv2d-689           [-1, 32, 16, 16]           9,216
     BatchNorm2d-690           [-1, 32, 16, 16]              64
          Conv2d-691           [-1, 32, 16, 16]           9,216
     BatchNorm2d-692           [-1, 32, 16, 16]              64
      BasicBlock-693           [-1, 32, 16, 16]               0
          Conv2d-694           [-1, 32, 16, 16]           9,216
     BatchNorm2d-695           [-1, 32, 16, 16]              64
          Conv2d-696           [-1, 32, 16, 16]           9,216
     BatchNorm2d-697           [-1, 32, 16, 16]              64
      BasicBlock-698           [-1, 32, 16, 16]               0
          Conv2d-699           [-1, 32, 16, 16]           9,216
     BatchNorm2d-700           [-1, 32, 16, 16]              64
          Conv2d-701           [-1, 32, 16, 16]           9,216
     BatchNorm2d-702           [-1, 32, 16, 16]              64
      BasicBlock-703           [-1, 32, 16, 16]               0
          Conv2d-704           [-1, 32, 16, 16]           9,216
     BatchNorm2d-705           [-1, 32, 16, 16]              64
          Conv2d-706           [-1, 32, 16, 16]           9,216
     BatchNorm2d-707           [-1, 32, 16, 16]              64
      BasicBlock-708           [-1, 32, 16, 16]               0
          Conv2d-709           [-1, 32, 16, 16]           9,216
     BatchNorm2d-710           [-1, 32, 16, 16]              64
          Conv2d-711           [-1, 32, 16, 16]           9,216
     BatchNorm2d-712           [-1, 32, 16, 16]              64
      BasicBlock-713           [-1, 32, 16, 16]               0
          Conv2d-714           [-1, 32, 16, 16]           9,216
     BatchNorm2d-715           [-1, 32, 16, 16]              64
          Conv2d-716           [-1, 32, 16, 16]           9,216
     BatchNorm2d-717           [-1, 32, 16, 16]              64
      BasicBlock-718           [-1, 32, 16, 16]               0
          Conv2d-719           [-1, 32, 16, 16]           9,216
     BatchNorm2d-720           [-1, 32, 16, 16]              64
          Conv2d-721           [-1, 32, 16, 16]           9,216
     BatchNorm2d-722           [-1, 32, 16, 16]              64
      BasicBlock-723           [-1, 32, 16, 16]               0
          Conv2d-724             [-1, 64, 8, 8]          18,432
     BatchNorm2d-725             [-1, 64, 8, 8]             128
          Conv2d-726             [-1, 64, 8, 8]          36,864
     BatchNorm2d-727             [-1, 64, 8, 8]             128
     LambdaLayer-728             [-1, 64, 8, 8]               0
      BasicBlock-729             [-1, 64, 8, 8]               0
          Conv2d-730             [-1, 64, 8, 8]          36,864
     BatchNorm2d-731             [-1, 64, 8, 8]             128
          Conv2d-732             [-1, 64, 8, 8]          36,864
     BatchNorm2d-733             [-1, 64, 8, 8]             128
      BasicBlock-734             [-1, 64, 8, 8]               0
          Conv2d-735             [-1, 64, 8, 8]          36,864
     BatchNorm2d-736             [-1, 64, 8, 8]             128
          Conv2d-737             [-1, 64, 8, 8]          36,864
     BatchNorm2d-738             [-1, 64, 8, 8]             128
      BasicBlock-739             [-1, 64, 8, 8]               0
          Conv2d-740             [-1, 64, 8, 8]          36,864
     BatchNorm2d-741             [-1, 64, 8, 8]             128
          Conv2d-742             [-1, 64, 8, 8]          36,864
     BatchNorm2d-743             [-1, 64, 8, 8]             128
      BasicBlock-744             [-1, 64, 8, 8]               0
          Conv2d-745             [-1, 64, 8, 8]          36,864
     BatchNorm2d-746             [-1, 64, 8, 8]             128
          Conv2d-747             [-1, 64, 8, 8]          36,864
     BatchNorm2d-748             [-1, 64, 8, 8]             128
      BasicBlock-749             [-1, 64, 8, 8]               0
          Conv2d-750             [-1, 64, 8, 8]          36,864
     BatchNorm2d-751             [-1, 64, 8, 8]             128
          Conv2d-752             [-1, 64, 8, 8]          36,864
     BatchNorm2d-753             [-1, 64, 8, 8]             128
      BasicBlock-754             [-1, 64, 8, 8]               0
          Conv2d-755             [-1, 64, 8, 8]          36,864
     BatchNorm2d-756             [-1, 64, 8, 8]             128
          Conv2d-757             [-1, 64, 8, 8]          36,864
     BatchNorm2d-758             [-1, 64, 8, 8]             128
      BasicBlock-759             [-1, 64, 8, 8]               0
          Conv2d-760             [-1, 64, 8, 8]          36,864
     BatchNorm2d-761             [-1, 64, 8, 8]             128
          Conv2d-762             [-1, 64, 8, 8]          36,864
     BatchNorm2d-763             [-1, 64, 8, 8]             128
      BasicBlock-764             [-1, 64, 8, 8]               0
          Conv2d-765             [-1, 64, 8, 8]          36,864
     BatchNorm2d-766             [-1, 64, 8, 8]             128
          Conv2d-767             [-1, 64, 8, 8]          36,864
     BatchNorm2d-768             [-1, 64, 8, 8]             128
      BasicBlock-769             [-1, 64, 8, 8]               0
          Conv2d-770             [-1, 64, 8, 8]          36,864
     BatchNorm2d-771             [-1, 64, 8, 8]             128
          Conv2d-772             [-1, 64, 8, 8]          36,864
     BatchNorm2d-773             [-1, 64, 8, 8]             128
      BasicBlock-774             [-1, 64, 8, 8]               0
          Conv2d-775             [-1, 64, 8, 8]          36,864
     BatchNorm2d-776             [-1, 64, 8, 8]             128
          Conv2d-777             [-1, 64, 8, 8]          36,864
     BatchNorm2d-778             [-1, 64, 8, 8]             128
      BasicBlock-779             [-1, 64, 8, 8]               0
          Conv2d-780             [-1, 64, 8, 8]          36,864
     BatchNorm2d-781             [-1, 64, 8, 8]             128
          Conv2d-782             [-1, 64, 8, 8]          36,864
     BatchNorm2d-783             [-1, 64, 8, 8]             128
      BasicBlock-784             [-1, 64, 8, 8]               0
          Conv2d-785             [-1, 64, 8, 8]          36,864
     BatchNorm2d-786             [-1, 64, 8, 8]             128
          Conv2d-787             [-1, 64, 8, 8]          36,864
     BatchNorm2d-788             [-1, 64, 8, 8]             128
      BasicBlock-789             [-1, 64, 8, 8]               0
          Conv2d-790             [-1, 64, 8, 8]          36,864
     BatchNorm2d-791             [-1, 64, 8, 8]             128
          Conv2d-792             [-1, 64, 8, 8]          36,864
     BatchNorm2d-793             [-1, 64, 8, 8]             128
      BasicBlock-794             [-1, 64, 8, 8]               0
          Conv2d-795             [-1, 64, 8, 8]          36,864
     BatchNorm2d-796             [-1, 64, 8, 8]             128
          Conv2d-797             [-1, 64, 8, 8]          36,864
     BatchNorm2d-798             [-1, 64, 8, 8]             128
      BasicBlock-799             [-1, 64, 8, 8]               0
          Conv2d-800             [-1, 64, 8, 8]          36,864
     BatchNorm2d-801             [-1, 64, 8, 8]             128
          Conv2d-802             [-1, 64, 8, 8]          36,864
     BatchNorm2d-803             [-1, 64, 8, 8]             128
      BasicBlock-804             [-1, 64, 8, 8]               0
          Conv2d-805             [-1, 64, 8, 8]          36,864
     BatchNorm2d-806             [-1, 64, 8, 8]             128
          Conv2d-807             [-1, 64, 8, 8]          36,864
     BatchNorm2d-808             [-1, 64, 8, 8]             128
      BasicBlock-809             [-1, 64, 8, 8]               0
          Conv2d-810             [-1, 64, 8, 8]          36,864
     BatchNorm2d-811             [-1, 64, 8, 8]             128
          Conv2d-812             [-1, 64, 8, 8]          36,864
     BatchNorm2d-813             [-1, 64, 8, 8]             128
      BasicBlock-814             [-1, 64, 8, 8]               0
          Conv2d-815             [-1, 64, 8, 8]          36,864
     BatchNorm2d-816             [-1, 64, 8, 8]             128
          Conv2d-817             [-1, 64, 8, 8]          36,864
     BatchNorm2d-818             [-1, 64, 8, 8]             128
      BasicBlock-819             [-1, 64, 8, 8]               0
          Conv2d-820             [-1, 64, 8, 8]          36,864
     BatchNorm2d-821             [-1, 64, 8, 8]             128
          Conv2d-822             [-1, 64, 8, 8]          36,864
     BatchNorm2d-823             [-1, 64, 8, 8]             128
      BasicBlock-824             [-1, 64, 8, 8]               0
          Conv2d-825             [-1, 64, 8, 8]          36,864
     BatchNorm2d-826             [-1, 64, 8, 8]             128
          Conv2d-827             [-1, 64, 8, 8]          36,864
     BatchNorm2d-828             [-1, 64, 8, 8]             128
      BasicBlock-829             [-1, 64, 8, 8]               0
          Conv2d-830             [-1, 64, 8, 8]          36,864
     BatchNorm2d-831             [-1, 64, 8, 8]             128
          Conv2d-832             [-1, 64, 8, 8]          36,864
     BatchNorm2d-833             [-1, 64, 8, 8]             128
      BasicBlock-834             [-1, 64, 8, 8]               0
          Conv2d-835             [-1, 64, 8, 8]          36,864
     BatchNorm2d-836             [-1, 64, 8, 8]             128
          Conv2d-837             [-1, 64, 8, 8]          36,864
     BatchNorm2d-838             [-1, 64, 8, 8]             128
      BasicBlock-839             [-1, 64, 8, 8]               0
          Conv2d-840             [-1, 64, 8, 8]          36,864
     BatchNorm2d-841             [-1, 64, 8, 8]             128
          Conv2d-842             [-1, 64, 8, 8]          36,864
     BatchNorm2d-843             [-1, 64, 8, 8]             128
      BasicBlock-844             [-1, 64, 8, 8]               0
          Conv2d-845             [-1, 64, 8, 8]          36,864
     BatchNorm2d-846             [-1, 64, 8, 8]             128
          Conv2d-847             [-1, 64, 8, 8]          36,864
     BatchNorm2d-848             [-1, 64, 8, 8]             128
      BasicBlock-849             [-1, 64, 8, 8]               0
          Conv2d-850             [-1, 64, 8, 8]          36,864
     BatchNorm2d-851             [-1, 64, 8, 8]             128
          Conv2d-852             [-1, 64, 8, 8]          36,864
     BatchNorm2d-853             [-1, 64, 8, 8]             128
      BasicBlock-854             [-1, 64, 8, 8]               0
          Conv2d-855             [-1, 64, 8, 8]          36,864
     BatchNorm2d-856             [-1, 64, 8, 8]             128
          Conv2d-857             [-1, 64, 8, 8]          36,864
     BatchNorm2d-858             [-1, 64, 8, 8]             128
      BasicBlock-859             [-1, 64, 8, 8]               0
          Conv2d-860             [-1, 64, 8, 8]          36,864
     BatchNorm2d-861             [-1, 64, 8, 8]             128
          Conv2d-862             [-1, 64, 8, 8]          36,864
     BatchNorm2d-863             [-1, 64, 8, 8]             128
      BasicBlock-864             [-1, 64, 8, 8]               0
          Conv2d-865             [-1, 64, 8, 8]          36,864
     BatchNorm2d-866             [-1, 64, 8, 8]             128
          Conv2d-867             [-1, 64, 8, 8]          36,864
     BatchNorm2d-868             [-1, 64, 8, 8]             128
      BasicBlock-869             [-1, 64, 8, 8]               0
          Conv2d-870             [-1, 64, 8, 8]          36,864
     BatchNorm2d-871             [-1, 64, 8, 8]             128
          Conv2d-872             [-1, 64, 8, 8]          36,864
     BatchNorm2d-873             [-1, 64, 8, 8]             128
      BasicBlock-874             [-1, 64, 8, 8]               0
          Conv2d-875             [-1, 64, 8, 8]          36,864
     BatchNorm2d-876             [-1, 64, 8, 8]             128
          Conv2d-877             [-1, 64, 8, 8]          36,864
     BatchNorm2d-878             [-1, 64, 8, 8]             128
      BasicBlock-879             [-1, 64, 8, 8]               0
          Conv2d-880             [-1, 64, 8, 8]          36,864
     BatchNorm2d-881             [-1, 64, 8, 8]             128
          Conv2d-882             [-1, 64, 8, 8]          36,864
     BatchNorm2d-883             [-1, 64, 8, 8]             128
      BasicBlock-884             [-1, 64, 8, 8]               0
          Conv2d-885             [-1, 64, 8, 8]          36,864
     BatchNorm2d-886             [-1, 64, 8, 8]             128
          Conv2d-887             [-1, 64, 8, 8]          36,864
     BatchNorm2d-888             [-1, 64, 8, 8]             128
      BasicBlock-889             [-1, 64, 8, 8]               0
          Conv2d-890             [-1, 64, 8, 8]          36,864
     BatchNorm2d-891             [-1, 64, 8, 8]             128
          Conv2d-892             [-1, 64, 8, 8]          36,864
     BatchNorm2d-893             [-1, 64, 8, 8]             128
      BasicBlock-894             [-1, 64, 8, 8]               0
          Conv2d-895             [-1, 64, 8, 8]          36,864
     BatchNorm2d-896             [-1, 64, 8, 8]             128
          Conv2d-897             [-1, 64, 8, 8]          36,864
     BatchNorm2d-898             [-1, 64, 8, 8]             128
      BasicBlock-899             [-1, 64, 8, 8]               0
          Conv2d-900             [-1, 64, 8, 8]          36,864
     BatchNorm2d-901             [-1, 64, 8, 8]             128
          Conv2d-902             [-1, 64, 8, 8]          36,864
     BatchNorm2d-903             [-1, 64, 8, 8]             128
      BasicBlock-904             [-1, 64, 8, 8]               0
          Conv2d-905             [-1, 64, 8, 8]          36,864
     BatchNorm2d-906             [-1, 64, 8, 8]             128
          Conv2d-907             [-1, 64, 8, 8]          36,864
     BatchNorm2d-908             [-1, 64, 8, 8]             128
      BasicBlock-909             [-1, 64, 8, 8]               0
          Conv2d-910             [-1, 64, 8, 8]          36,864
     BatchNorm2d-911             [-1, 64, 8, 8]             128
          Conv2d-912             [-1, 64, 8, 8]          36,864
     BatchNorm2d-913             [-1, 64, 8, 8]             128
      BasicBlock-914             [-1, 64, 8, 8]               0
          Conv2d-915             [-1, 64, 8, 8]          36,864
     BatchNorm2d-916             [-1, 64, 8, 8]             128
          Conv2d-917             [-1, 64, 8, 8]          36,864
     BatchNorm2d-918             [-1, 64, 8, 8]             128
      BasicBlock-919             [-1, 64, 8, 8]               0
          Conv2d-920             [-1, 64, 8, 8]          36,864
     BatchNorm2d-921             [-1, 64, 8, 8]             128
          Conv2d-922             [-1, 64, 8, 8]          36,864
     BatchNorm2d-923             [-1, 64, 8, 8]             128
      BasicBlock-924             [-1, 64, 8, 8]               0
          Conv2d-925             [-1, 64, 8, 8]          36,864
     BatchNorm2d-926             [-1, 64, 8, 8]             128
          Conv2d-927             [-1, 64, 8, 8]          36,864
     BatchNorm2d-928             [-1, 64, 8, 8]             128
      BasicBlock-929             [-1, 64, 8, 8]               0
          Conv2d-930             [-1, 64, 8, 8]          36,864
     BatchNorm2d-931             [-1, 64, 8, 8]             128
          Conv2d-932             [-1, 64, 8, 8]          36,864
     BatchNorm2d-933             [-1, 64, 8, 8]             128
      BasicBlock-934             [-1, 64, 8, 8]               0
          Conv2d-935             [-1, 64, 8, 8]          36,864
     BatchNorm2d-936             [-1, 64, 8, 8]             128
          Conv2d-937             [-1, 64, 8, 8]          36,864
     BatchNorm2d-938             [-1, 64, 8, 8]             128
      BasicBlock-939             [-1, 64, 8, 8]               0
          Conv2d-940             [-1, 64, 8, 8]          36,864
     BatchNorm2d-941             [-1, 64, 8, 8]             128
          Conv2d-942             [-1, 64, 8, 8]          36,864
     BatchNorm2d-943             [-1, 64, 8, 8]             128
      BasicBlock-944             [-1, 64, 8, 8]               0
          Conv2d-945             [-1, 64, 8, 8]          36,864
     BatchNorm2d-946             [-1, 64, 8, 8]             128
          Conv2d-947             [-1, 64, 8, 8]          36,864
     BatchNorm2d-948             [-1, 64, 8, 8]             128
      BasicBlock-949             [-1, 64, 8, 8]               0
          Conv2d-950             [-1, 64, 8, 8]          36,864
     BatchNorm2d-951             [-1, 64, 8, 8]             128
          Conv2d-952             [-1, 64, 8, 8]          36,864
     BatchNorm2d-953             [-1, 64, 8, 8]             128
      BasicBlock-954             [-1, 64, 8, 8]               0
          Conv2d-955             [-1, 64, 8, 8]          36,864
     BatchNorm2d-956             [-1, 64, 8, 8]             128
          Conv2d-957             [-1, 64, 8, 8]          36,864
     BatchNorm2d-958             [-1, 64, 8, 8]             128
      BasicBlock-959             [-1, 64, 8, 8]               0
          Conv2d-960             [-1, 64, 8, 8]          36,864
     BatchNorm2d-961             [-1, 64, 8, 8]             128
          Conv2d-962             [-1, 64, 8, 8]          36,864
     BatchNorm2d-963             [-1, 64, 8, 8]             128
      BasicBlock-964             [-1, 64, 8, 8]               0
          Conv2d-965             [-1, 64, 8, 8]          36,864
     BatchNorm2d-966             [-1, 64, 8, 8]             128
          Conv2d-967             [-1, 64, 8, 8]          36,864
     BatchNorm2d-968             [-1, 64, 8, 8]             128
      BasicBlock-969             [-1, 64, 8, 8]               0
          Conv2d-970             [-1, 64, 8, 8]          36,864
     BatchNorm2d-971             [-1, 64, 8, 8]             128
          Conv2d-972             [-1, 64, 8, 8]          36,864
     BatchNorm2d-973             [-1, 64, 8, 8]             128
      BasicBlock-974             [-1, 64, 8, 8]               0
          Conv2d-975             [-1, 64, 8, 8]          36,864
     BatchNorm2d-976             [-1, 64, 8, 8]             128
          Conv2d-977             [-1, 64, 8, 8]          36,864
     BatchNorm2d-978             [-1, 64, 8, 8]             128
      BasicBlock-979             [-1, 64, 8, 8]               0
          Conv2d-980             [-1, 64, 8, 8]          36,864
     BatchNorm2d-981             [-1, 64, 8, 8]             128
          Conv2d-982             [-1, 64, 8, 8]          36,864
     BatchNorm2d-983             [-1, 64, 8, 8]             128
      BasicBlock-984             [-1, 64, 8, 8]               0
          Conv2d-985             [-1, 64, 8, 8]          36,864
     BatchNorm2d-986             [-1, 64, 8, 8]             128
          Conv2d-987             [-1, 64, 8, 8]          36,864
     BatchNorm2d-988             [-1, 64, 8, 8]             128
      BasicBlock-989             [-1, 64, 8, 8]               0
          Conv2d-990             [-1, 64, 8, 8]          36,864
     BatchNorm2d-991             [-1, 64, 8, 8]             128
          Conv2d-992             [-1, 64, 8, 8]          36,864
     BatchNorm2d-993             [-1, 64, 8, 8]             128
      BasicBlock-994             [-1, 64, 8, 8]               0
          Conv2d-995             [-1, 64, 8, 8]          36,864
     BatchNorm2d-996             [-1, 64, 8, 8]             128
          Conv2d-997             [-1, 64, 8, 8]          36,864
     BatchNorm2d-998             [-1, 64, 8, 8]             128
      BasicBlock-999             [-1, 64, 8, 8]               0
         Conv2d-1000             [-1, 64, 8, 8]          36,864
    BatchNorm2d-1001             [-1, 64, 8, 8]             128
         Conv2d-1002             [-1, 64, 8, 8]          36,864
    BatchNorm2d-1003             [-1, 64, 8, 8]             128
     BasicBlock-1004             [-1, 64, 8, 8]               0
         Conv2d-1005             [-1, 64, 8, 8]          36,864
    BatchNorm2d-1006             [-1, 64, 8, 8]             128
         Conv2d-1007             [-1, 64, 8, 8]          36,864
    BatchNorm2d-1008             [-1, 64, 8, 8]             128
     BasicBlock-1009             [-1, 64, 8, 8]               0
         Conv2d-1010             [-1, 64, 8, 8]          36,864
    BatchNorm2d-1011             [-1, 64, 8, 8]             128
         Conv2d-1012             [-1, 64, 8, 8]          36,864
    BatchNorm2d-1013             [-1, 64, 8, 8]             128
     BasicBlock-1014             [-1, 64, 8, 8]               0
         Conv2d-1015             [-1, 64, 8, 8]          36,864
    BatchNorm2d-1016             [-1, 64, 8, 8]             128
         Conv2d-1017             [-1, 64, 8, 8]          36,864
    BatchNorm2d-1018             [-1, 64, 8, 8]             128
     BasicBlock-1019             [-1, 64, 8, 8]               0
         Conv2d-1020             [-1, 64, 8, 8]          36,864
    BatchNorm2d-1021             [-1, 64, 8, 8]             128
         Conv2d-1022             [-1, 64, 8, 8]          36,864
    BatchNorm2d-1023             [-1, 64, 8, 8]             128
     BasicBlock-1024             [-1, 64, 8, 8]               0
         Conv2d-1025             [-1, 64, 8, 8]          36,864
    BatchNorm2d-1026             [-1, 64, 8, 8]             128
         Conv2d-1027             [-1, 64, 8, 8]          36,864
    BatchNorm2d-1028             [-1, 64, 8, 8]             128
     BasicBlock-1029             [-1, 64, 8, 8]               0
         Conv2d-1030             [-1, 64, 8, 8]          36,864
    BatchNorm2d-1031             [-1, 64, 8, 8]             128
         Conv2d-1032             [-1, 64, 8, 8]          36,864
    BatchNorm2d-1033             [-1, 64, 8, 8]             128
     BasicBlock-1034             [-1, 64, 8, 8]               0
         Conv2d-1035             [-1, 64, 8, 8]          36,864
    BatchNorm2d-1036             [-1, 64, 8, 8]             128
         Conv2d-1037             [-1, 64, 8, 8]          36,864
    BatchNorm2d-1038             [-1, 64, 8, 8]             128
     BasicBlock-1039             [-1, 64, 8, 8]               0
         Conv2d-1040             [-1, 64, 8, 8]          36,864
    BatchNorm2d-1041             [-1, 64, 8, 8]             128
         Conv2d-1042             [-1, 64, 8, 8]          36,864
    BatchNorm2d-1043             [-1, 64, 8, 8]             128
     BasicBlock-1044             [-1, 64, 8, 8]               0
         Conv2d-1045             [-1, 64, 8, 8]          36,864
    BatchNorm2d-1046             [-1, 64, 8, 8]             128
         Conv2d-1047             [-1, 64, 8, 8]          36,864
    BatchNorm2d-1048             [-1, 64, 8, 8]             128
     BasicBlock-1049             [-1, 64, 8, 8]               0
         Conv2d-1050             [-1, 64, 8, 8]          36,864
    BatchNorm2d-1051             [-1, 64, 8, 8]             128
         Conv2d-1052             [-1, 64, 8, 8]          36,864
    BatchNorm2d-1053             [-1, 64, 8, 8]             128
     BasicBlock-1054             [-1, 64, 8, 8]               0
         Conv2d-1055             [-1, 64, 8, 8]          36,864
    BatchNorm2d-1056             [-1, 64, 8, 8]             128
         Conv2d-1057             [-1, 64, 8, 8]          36,864
    BatchNorm2d-1058             [-1, 64, 8, 8]             128
     BasicBlock-1059             [-1, 64, 8, 8]               0
         Conv2d-1060             [-1, 64, 8, 8]          36,864
    BatchNorm2d-1061             [-1, 64, 8, 8]             128
         Conv2d-1062             [-1, 64, 8, 8]          36,864
    BatchNorm2d-1063             [-1, 64, 8, 8]             128
     BasicBlock-1064             [-1, 64, 8, 8]               0
         Conv2d-1065             [-1, 64, 8, 8]          36,864
    BatchNorm2d-1066             [-1, 64, 8, 8]             128
         Conv2d-1067             [-1, 64, 8, 8]          36,864
    BatchNorm2d-1068             [-1, 64, 8, 8]             128
     BasicBlock-1069             [-1, 64, 8, 8]               0
         Conv2d-1070             [-1, 64, 8, 8]          36,864
    BatchNorm2d-1071             [-1, 64, 8, 8]             128
         Conv2d-1072             [-1, 64, 8, 8]          36,864
    BatchNorm2d-1073             [-1, 64, 8, 8]             128
     BasicBlock-1074             [-1, 64, 8, 8]               0
         Conv2d-1075             [-1, 64, 8, 8]          36,864
    BatchNorm2d-1076             [-1, 64, 8, 8]             128
         Conv2d-1077             [-1, 64, 8, 8]          36,864
    BatchNorm2d-1078             [-1, 64, 8, 8]             128
     BasicBlock-1079             [-1, 64, 8, 8]               0
         Conv2d-1080             [-1, 64, 8, 8]          36,864
    BatchNorm2d-1081             [-1, 64, 8, 8]             128
         Conv2d-1082             [-1, 64, 8, 8]          36,864
    BatchNorm2d-1083             [-1, 64, 8, 8]             128
     BasicBlock-1084             [-1, 64, 8, 8]               0
         Linear-1085                   [-1, 10]             650
================================================================
Total params: 6,977,626
Trainable params: 32,288
Non-trainable params: 6,945,338
----------------------------------------------------------------
Input size (MB): 0.01
Forward/backward pass size (MB): 79.09
Params size (MB): 26.62
Estimated Total Size (MB): 105.72
----------------------------------------------------------------
=> no checkpoint found at 'None'
…
