----------------------------------------------------------------
        Layer (type)               Output Shape         Param #
================================================================
            Conv2d-1           [-1, 16, 32, 32]             432
       BatchNorm2d-2           [-1, 16, 32, 32]              32
            Conv2d-3           [-1, 16, 32, 32]           2,304
       BatchNorm2d-4           [-1, 16, 32, 32]              32
            Conv2d-5           [-1, 16, 32, 32]           2,304
       BatchNorm2d-6           [-1, 16, 32, 32]              32
        BasicBlock-7           [-1, 16, 32, 32]               0
            Conv2d-8           [-1, 16, 32, 32]           2,304
       BatchNorm2d-9           [-1, 16, 32, 32]              32
           Conv2d-10           [-1, 16, 32, 32]           2,304
      BatchNorm2d-11           [-1, 16, 32, 32]              32
       BasicBlock-12           [-1, 16, 32, 32]               0
           Conv2d-13           [-1, 16, 32, 32]           2,304
      BatchNorm2d-14           [-1, 16, 32, 32]              32
           Conv2d-15           [-1, 16, 32, 32]           2,304
      BatchNorm2d-16           [-1, 16, 32, 32]              32
       BasicBlock-17           [-1, 16, 32, 32]               0
           Conv2d-18           [-1, 16, 32, 32]           2,304
      BatchNorm2d-19           [-1, 16, 32, 32]              32
           Conv2d-20           [-1, 16, 32, 32]           2,304
      BatchNorm2d-21           [-1, 16, 32, 32]              32
       BasicBlock-22           [-1, 16, 32, 32]               0
           Conv2d-23           [-1, 16, 32, 32]           2,304
      BatchNorm2d-24           [-1, 16, 32, 32]              32
           Conv2d-25           [-1, 16, 32, 32]           2,304
      BatchNorm2d-26           [-1, 16, 32, 32]              32
       BasicBlock-27           [-1, 16, 32, 32]               0
           Conv2d-28           [-1, 32, 16, 16]           4,608
      BatchNorm2d-29           [-1, 32, 16, 16]              64
           Conv2d-30           [-1, 32, 16, 16]           9,216
      BatchNorm2d-31           [-1, 32, 16, 16]              64
      LambdaLayer-32           [-1, 32, 16, 16]               0
       BasicBlock-33           [-1, 32, 16, 16]               0
           Conv2d-34           [-1, 32, 16, 16]           9,216
      BatchNorm2d-35           [-1, 32, 16, 16]              64
           Conv2d-36           [-1, 32, 16, 16]           9,216
      BatchNorm2d-37           [-1, 32, 16, 16]              64
       BasicBlock-38           [-1, 32, 16, 16]               0
           Conv2d-39           [-1, 32, 16, 16]           9,216
      BatchNorm2d-40           [-1, 32, 16, 16]              64
           Conv2d-41           [-1, 32, 16, 16]           9,216
      BatchNorm2d-42           [-1, 32, 16, 16]              64
       BasicBlock-43           [-1, 32, 16, 16]               0
           Conv2d-44           [-1, 32, 16, 16]           9,216
      BatchNorm2d-45           [-1, 32, 16, 16]              64
           Conv2d-46           [-1, 32, 16, 16]           9,216
      BatchNorm2d-47           [-1, 32, 16, 16]              64
       BasicBlock-48           [-1, 32, 16, 16]               0
           Conv2d-49           [-1, 32, 16, 16]           9,216
      BatchNorm2d-50           [-1, 32, 16, 16]              64
           Conv2d-51           [-1, 32, 16, 16]           9,216
      BatchNorm2d-52           [-1, 32, 16, 16]              64
       BasicBlock-53           [-1, 32, 16, 16]               0
           Conv2d-54             [-1, 64, 8, 8]          18,432
      BatchNorm2d-55             [-1, 64, 8, 8]             128
           Conv2d-56             [-1, 64, 8, 8]          36,864
      BatchNorm2d-57             [-1, 64, 8, 8]             128
      LambdaLayer-58             [-1, 64, 8, 8]               0
       BasicBlock-59             [-1, 64, 8, 8]               0
           Conv2d-60             [-1, 64, 8, 8]          36,864
      BatchNorm2d-61             [-1, 64, 8, 8]             128
           Conv2d-62             [-1, 64, 8, 8]          36,864
      BatchNorm2d-63             [-1, 64, 8, 8]             128
       BasicBlock-64             [-1, 64, 8, 8]               0
           Conv2d-65             [-1, 64, 8, 8]          36,864
      BatchNorm2d-66             [-1, 64, 8, 8]             128
           Conv2d-67             [-1, 64, 8, 8]          36,864
      BatchNorm2d-68             [-1, 64, 8, 8]             128
       BasicBlock-69             [-1, 64, 8, 8]               0
           Conv2d-70             [-1, 64, 8, 8]          36,864
      BatchNorm2d-71             [-1, 64, 8, 8]             128
           Conv2d-72             [-1, 64, 8, 8]          36,864
      BatchNorm2d-73             [-1, 64, 8, 8]             128
       BasicBlock-74             [-1, 64, 8, 8]               0
           Conv2d-75             [-1, 64, 8, 8]          36,864
      BatchNorm2d-76             [-1, 64, 8, 8]             128
           Conv2d-77             [-1, 64, 8, 8]          36,864
      BatchNorm2d-78             [-1, 64, 8, 8]             128
       BasicBlock-79             [-1, 64, 8, 8]               0
           Linear-80                   [-1, 10]             650
           ResNet-81                   [-1, 10]               0
================================================================
Total params: 464,154
Trainable params: 464,154
Non-trainable params: 0
----------------------------------------------------------------
Input size (MB): 0.01
Forward/backward pass size (MB): 5.81
Params size (MB): 1.77
Estimated Total Size (MB): 7.59
----------------------------------------------------------------
=> no checkpoint found at 'None'
…
