----------------------------------------------------------------
        Layer (type)               Output Shape         Param #
================================================================
            Conv2d-1           [-1, 16, 32, 32]             432
       BatchNorm2d-2           [-1, 16, 32, 32]              32
            Conv2d-3           [-1, 16, 32, 32]           2,304
       BatchNorm2d-4           [-1, 16, 32, 32]              32
            Conv2d-5           [-1, 16, 32, 32]           2,304
       BatchNorm2d-6           [-1, 16, 32, 32]              32
        BasicBlock-7           [-1, 16, 32, 32]               0
            Conv2d-8           [-1, 16, 32, 32]           2,304
       BatchNorm2d-9           [-1, 16, 32, 32]              32
           Conv2d-10           [-1, 16, 32, 32]           2,304
      BatchNorm2d-11           [-1, 16, 32, 32]              32
       BasicBlock-12           [-1, 16, 32, 32]               0
           Conv2d-13           [-1, 32, 16, 16]           4,608
      BatchNorm2d-14           [-1, 32, 16, 16]              64
           Conv2d-15           [-1, 32, 16, 16]           9,216
      BatchNorm2d-16           [-1, 32, 16, 16]              64
      LambdaLayer-17           [-1, 32, 16, 16]               0
       BasicBlock-18           [-1, 32, 16, 16]               0
           Conv2d-19           [-1, 32, 16, 16]           9,216
      BatchNorm2d-20           [-1, 32, 16, 16]              64
           Conv2d-21           [-1, 32, 16, 16]           9,216
      BatchNorm2d-22           [-1, 32, 16, 16]              64
       BasicBlock-23           [-1, 32, 16, 16]               0
           Conv2d-24             [-1, 64, 8, 8]          18,432
      BatchNorm2d-25             [-1, 64, 8, 8]             128
           Conv2d-26             [-1, 64, 8, 8]          36,864
      BatchNorm2d-27             [-1, 64, 8, 8]             128
      LambdaLayer-28             [-1, 64, 8, 8]               0
       BasicBlock-29             [-1, 64, 8, 8]               0
           Conv2d-30             [-1, 64, 8, 8]          36,864
      BatchNorm2d-31             [-1, 64, 8, 8]             128
           Conv2d-32             [-1, 64, 8, 8]          36,864
      BatchNorm2d-33             [-1, 64, 8, 8]             128
       BasicBlock-34             [-1, 64, 8, 8]               0
           Linear-35                   [-1, 10]             650
================================================================
Total params: 172,506
Trainable params: 172,506
Non-trainable params: 0
----------------------------------------------------------------
Input size (MB): 0.01
Forward/backward pass size (MB): 2.53
Params size (MB): 0.66
Estimated Total Size (MB): 3.20
----------------------------------------------------------------
=> no checkpoint found at 'None'
…
